database/trained_drone_swarm_v2.pth (torch, 97714 bytes, 72 tensors)

fc1.weight f4 [32, 10]
00000000: 3996 d6bc 10bb aabc 6115 88bc dde8 46bd
00000010: b7da 23bc 7bbd 76bd 7402 4dbd 10db 89bd
00000020: c724 103d 0e3f 3dbd 925f 36be f978 133e
00000030: beed 29bd b952 55be d772 a43d febf 3fbe
00000040: 2f50 5a3e 935f 41be e861 24be 79e7 efbe
00000050: 7d95 02be 440a 54be 380f 83bd 5c68 46be
00000060: 90c3 bf3d 3321 c4be af32 133d 4afa c2bd
00000070: f618 d43d 10b6 f0be 6508 b23d 52f9 c7bd
00000080: cbbd f23d 6b9c ac3b 0a65 e33c ab57 2dbd
00000090: 8d3c c53d 9368 4dbe 9191 333e 3824 e1be
000000a0: c348 883d 3911 c7bd e6d4 bcbd 4bad bbbd
000000b0: 441b bc3d 6b97 ac3d 1f7d c13d 15d4 d9bd
000000c0: d048 d33d 3df0 efbd 9cc0 e0ba cb1d a6bc
000000d0: d706 92bc 561a 1cb3 5af5 67b2 c8c0 11bd
000000e0: 6ae3 3ebc 469c afbd f768 073d 4433 1fbd
000000f0: dcd6 2dbb feda 81bb 4a87 9dbc 5650 86bd
00000100: 4c67 663d 2f23 803d 81c2 5ebc 53be 03be
00000110: ef9b 843d f545 13be 53de 0f3d fba2 39be
00000120: 21c9 4e3d 40f4 ca3b c257 f73d 6f7e 6cbc
00000130: 922d 383d 8ff8 3bbe 449f c7bd 1c49 1abe
00000140: 1d56 66ad e807 0eae a649 0ead d383 28ad
00000150: bacd 0ead d71e 58ae fd04 0932 e7b5 9e30
00000160: c102 012f f55d 86af aa35 6b3c 5025 2c3e
00000170: 0cf1 21bd d1f3 c43c ca67 78bc 7552 453e
00000180: 6554 d93e 1176 463d 98e4 0fbe 32eb 34be
00000190: d4e4 bbbd 479c 64ba f985 663e a3a5 d4be
000001a0: 7795 92be f82d ac3c 6641 2bbe dec7 46be
000001b0: 559c 20be 142e c2bd 2927 0c3e 0042 fd3c
000001c0: 6fbc 903d 6561 3ebd e255 adbb 061d d7bc
000001d0: 5ecb a03d 8756 2ebe e8f3 22be e49e 4cbd
000001e0: 4241 633e 02b0 9fbe fe02 8ebe fa8a 4abe
000001f0: b93f 753d 736c 83be be8d 88be c95b 81bd
00000200: aacb 19be dc43 b3bd 650e c8bc d788 babd
00000210: b527 47bc 5f5c e73b a992 233c bcef 5bbc
00000220: 1a2a 18bd d3d6 f3bc 7b9f 833d dd63 0ebd
00000230: 6601 c63d 9e7d fcbd 81b0 fdbd 2bf8 06be
00000240: 6ba6 a33c 9cff e0bd d148 06be 90f4 0bbe
00000250: 7084 0a3e 457e 04be 96bd 4abe 5dbb a03d
00000260: 2477 223d 471c 85bd 27d9 99be fa60 eb3d
00000270: cbaf d83d 5af9 293e 3bdd 4bbe c2d2 9e3e
00000280: e38a 3abe fa9e 1f3e 5aa9 a63e 8723 393e
00000290: 022c b7bd c1fa a43e 23e0 ce3d 1d95 2ebd
000002a0: 7c39 113e 4e89 aabe a327 98bc 4be8 20bd
000002b0: d2a6 40bd a1a4 cdbc 06a4 003a 1df2 1ebd
000002c0: 492c 8cbd 84c4 6cbd f392 a13c 7571 67bd
000002d0: 1323 00be 8309 b23b faad 883e 98c9 aa3e
000002e0: d878 a8bd a915 15be c9a0 703e 0fa2 95be
000002f0: 7ab3 dbbc 1a1b 75bd db4e ac3d 4495 97bd
00000300: 50f0 d1bd 742c bdbd 8b7f a13d 3fd9 b33d
00000310: 2f3a e93d 70c7 b9bd 4027 e73d 7b3d f3bd
00000320: 216d aa2e 4894 feae ba17 282f d92a 0cae
00000330: f82e 59ad dece ec2d 9b64 0b3b 4000 6c2c
00000340: a430 3f2e dcca 07bb b592 363d cff5 95be
00000350: fc41 46be 774f 77be 49c8 23be 2121 a1bc
00000360: f307 26be 083a ca3e 57ea c3be 7c28 773d
00000370: 4441 5fbe 67b8 ac3e accf 993e 6b0d c53e
00000380: 6cca bcbe b66b 9fbe 909b 8ebe 4be7 033c
00000390: a172 0e3e 2a57 083e b058 953d 21dd 063e
000003a0: fd40 a33d 9d76 bbbe d295 9a3e 6d48 523d
000003b0: 6b16 173c a2d7 ecbc 542c 33be 5c6e 503c
000003c0: 6934 88be ba20 30be 2fe6 1cbe 6e0b 60be
000003d0: 78dd b53e 1ca8 b6be 040b 883d ab30 6abe
000003e0: e46a 7d3e 61ca 063d 428c 45bd 8e5a ec3d
000003f0: 6b1e d4bd 241c 8a3b 7ec7 523e 2e28 02bc
-0.026194679 -0.020841151 -0.016611757 -0.04856192 -0.010000876 -0.060239296 -0.050051168 -0.06731236
0.035191324 -0.04620271 -0.17809895 0.14401616 -0.041486494 -0.20832337 0.080297165 -0.18725583
0.2131965 -0.18884115 -0.16052973 -0.46856287 -0.12752338 -0.20707041 -0.06399387 -0.19375747
0.093634725 -0.3830658 0.035937008 -0.09520395 0.103563234 -0.47013903 0.086930074 -0.09764351
0.118526064 0.00526767 0.02775814 -0.042319935 0.0963069 -0.20059423 0.17535998 -0.43972945
0.06654503 -0.09720082 -0.09220295 -0.091639124 0.09184888 0.08427318 0.09447693 -0.106361546
0.10316622 -0.11715744 -0.0017147246 -0.020277878 -0.017825527 -3.6345533e-08 -1.3501756e-08 -0.03558424
-0.011650899 -0.08574729 0.033059087 -0.03886725 -0.0026525771 -0.0039628735 -0.01922955 -0.065582916
0.056250855 0.06256711 -0.013596178 -0.12865572 0.064750545 -0.14382155 0.035124134 -0.18128578
0.05048478 0.0061936677 0.12077285 -0.014434441 0.044965334 -0.18356536 -0.097471744 -0.15066952
-1.3093107e-11 -3.2294084e-11 -8.088119e-12 -9.578965e-12 -8.117446e-12 -4.9140105e-11 7.975584e-09 1.1547713e-09
1.173346e-10 -2.4441218e-10 0.014356056 0.16811109 -0.03953652 0.024042042 -0.015161464 0.19269736
0.424472 0.04845244 -0.14052045 -0.17667845 -0.09174505 -0.0008720797 0.22512044 -0.4153262
-0.28629658 0.021018013 -0.16724166 -0.19412181 -0.15684636 -0.09481445 0.13686813 0.03091526
0.07067191 -0.0464796 -0.005289779 -0.026258957 0.07851289 -0.17025195 -0.15913355 -0.049956217
0.22192863 -0.3118897 -0.27736658 -0.19779578 0.059875224 -0.25668678 -0.2667064 -0.06316335
-0.15019098 -0.087531775 -0.024420926 -0.091081314 -0.012155463 0.007060572 0.009983697 -0.013423856
-0.037149526 -0.029765522 0.06426903 -0.034763206 0.096682355 -0.12328647 -0.12387181 -0.13180606
0.019976815 -0.109862536 -0.13113715 -0.13667512 0.13527083 -0.12938793 -0.19798884 0.07848237
0.039664403 -0.06499534 -0.30048487 0.11493106 0.10580405 0.16599026 -0.19908611 0.3102017
-0.18217044 0.15587988 0.3255108 0.18079959 -0.08943941 0.3222256 0.101013444 -0.042622674
0.14182085 -0.3330788 -0.018573588 -0.03928403 -0.047034092 -0.025102915 0.0004907254 -0.038805116
-0.06844384 -0.0578046 0.019723391 -0.056504685 -0.1251338 0.005433263 0.26695234 0.3335693
-0.08226174 -0.14559044 0.23498835 -0.29225203 -0.02681898 -0.0598403 0.08413478 -0.07401517
-0.10250914 -0.092369944 0.07885655 0.08781671 0.11388051 -0.09071243 0.11286783 -0.11876961
7.75009e-11 -1.1576923e-10 1.528794e-10 -3.187037e-11 -1.2345451e-11 2.6921961e-11 0.0021269682 3.3537756e-12
4.3471574e-11 -0.002072028 0.044573504 -0.292891 -0.19361109 -0.24151407 -0.15994371 -0.019669117
-0.1621397 0.394974 -0.38264725 0.060341343 -0.2180224 0.33734438 0.30041254 0.384868
-0.36873186 -0.31136864 -0.2785306 0.00805075 0.13910915 0.133145 0.072923064 0.13170291
0.0797138 -0.36613932 0.3019243 0.0513386 0.009221653 -0.028911415 -0.17497379 0.012721624
-0.26602486 -0.17199984 -0.15322183 -0.2187936 0.3552053 -0.35675132 0.06642726 -0.22870128
0.24747807 0.032907847 -0.048229463 0.115407094 -0.10357364 0.0042147804 0.20583913 -0.00794415

fc1.bias f4 [32]
00000000: c5e2 1fbd 9570 abbc 0c48 6c3d c57d 973c
00000010: c9ee 09be d778 2fbd abaf 0bbe 53c6 34be
00000020: 01a9 ebb6 cb5f 3ebc 5c9d 123e f979 26be
00000030: 8c8f 093e 438d 68bd fa94 08be 1c6e 623d
00000040: 4352 b4bd 780f 8bbd 4ad3 9c3d f321 f3bd
00000050: 1e91 21bb 5582 f93b 5619 853e 430a 8abd
00000060: d634 bd3d 816f 09be 3bb2 a63e 8a75 59bd
00000070: dcdc 5bbd 1466 85bd bcbe a5bc f66f 15bd
-0.039034624 -0.020927707 0.057685897 0.018492589 -0.13469996 -0.04283985 -0.13641231 -0.1765378
-7.0232204e-06 -0.0116195185 0.1431784 -0.16257466 0.13433665 -0.056775343 -0.1333808 0.05528079
-0.08804753 -0.0679006 0.07657488 -0.1187171 -0.0024653147 0.0076144137 0.25995892 -0.067402385
0.09238593 -0.13421442 0.32557854 -0.05309061 -0.053677425 -0.065136105 -0.02023255 -0.036483727

fc2.weight f4 [32, 32]
00000000: bed0 93bd e413 94be d43a 8c3e 875c f1bc
00000010: 69ae 77bd 02cc 81b0 0419 442c 5edd 1bbd
00000020: cf91 a22d 517d 073d 74e4 ba3d b4a6 ec3d
00000030: 417a 5ebe a299 26ac 9e57 22be 2953 f2bd
00000040: 79e9 003e 92a1 733d a0d8 21be 51eb 87bd
00000050: cebe 922d 892a 9fbe ed90 2dbe d8f3 8b3d
00000060: 2d87 d1bd dd18 ac3d ff05 f0be f987 72bd
00000070: 569c 8ebc f8ae 483c 30b9 2abd 0c0c 102d
00000080: f94e 533d bc6b 9c3b 8614 f23d e4dc 8a3e
00000090: 8eb9 59ad 323e ccb6 4578 0c2e f04b a23c
000000a0: 2028 a42c 01ef afbd 1a17 5ebe 713e a3bc
000000b0: f086 8cbe 3263 a33d 4af7 3d3e 0e05 1abe
000000c0: 1d9e 373e e159 443d bb7c 4f3e a555 8bac
000000d0: 8121 46ad 82f1 31bd 6b4c b4be c719 fd3b
000000e0: b221 443c be0f d7bc 0c82 e4bc 39a1 003e
000000f0: 662b 12bd f2b1 57b6 6b26 013d 32d8 84ad
00000100: c63f 85ac bd53 a13e 077a 643e 476c 263e
00000110: b2a8 a0bd 6e82 01ad a24b d42c fb7d fabd
00000120: 2f85 062d 183e 7fbe d40d 21bd b6d4 fdab
00000130: 4692 05be 9457 41ac a6dd b42c 6019 8dbe
00000140: 096d 23be 2aeb 10ab df24 f23c 136b 94bd
00000150: 3484 b834 921d 223e 36e1 f0bd c41a eabd
00000160: 3fe0 413e 30e4 4ebe 239c 97bc 7b49 c82c
00000170: a8d3 14ac 9b45 873b 58ee 31bd bd1c a9ac
00000180: bfb1 57bd 6a86 852d da06 acbc 60ad 002e
00000190: dff9 8fbd b3bd 5831 60a6 00be 2e5a 4fbc
000001a0: f97f e9ac ac53 f2bc e837 89bd 396e 4f3d
000001b0: 0dae b23c ac87 28ad 9b40 8fad 1141 61be
000001c0: 5ecb 14ac 2357 173d f6f3 253e f7b8 42bd
000001d0: b860 6ead 27a1 8ebd 9b07 babc 0fe4 d9bb
000001e0: 4d47 febd 69d1 20be 7e94 9ebd 5bbc 1bbd
000001f0: 3dd0 7f3b 48b3 34ad 3950 3ebd 4064 86aa
00000200: 4773 be2c 8cb9 94bc 6e02 35bb 77f3 d3bc
00000210: 4a9a 19ad f03a a02d 64b1 b22a 641f bbab
00000220: b0c9 232a 9cca f63d 1820 abbc 9434 08ad
00000230: ff19 28be ce8a a1ab ce28 af2c 7ef7 832d
00000240: 863e d93b 7ab8 c4ac fc34 073c 9ca8 8629
00000250: 0816 5d2a 716a 35bd df51 ac3d 8379 1d2c
00000260: 5901 813d 64f4 b62c 44d2 cbac 701b 02ad
00000270: e81d baac f151 c12d 50d2 d328 090a 5bac
00000280: 0bcd 453d 5e7c 6abe f55a 4c3c 62e0 ac3d
00000290: 39ff 4e3d f906 c8ba 43fa 81bc 5e08 f33c
000002a0: 1dcb 9a2d 8683 f9bd 04e7 c1bc 6f0d 9ebc
000002b0: 2c88 973d 337c c93c 6a1e 163e e039 12bd
000002c0: 6559 98bc 54c2 0a3d 9494 3bbd cbff 4f3d
000002d0: 903b 0931 c2f3 573b bee0 533d 2c20 55bd
000002e0: 90b8 c23d 8e7d 16bd aef9 0ebe 393c 153d
000002f0: 2104 10bc ac51 a23a 76d4 2dbc 9dca 482e
00000300: b819 32aa 7c48 a22c 3a95 04bd 3e7d 99ad
00000310: 3d1a 26ac 27a2 8cad 34f7 67bb 88ee e6ac
00000320: 446c 192d 3d8b 0cbd 85a2 6e3d 3cfd ca2a
00000330: 8ec2 93bd 506e e6ab d12c 52ad b246 f42c
00000340: 9853 4dad 879b 24ad 686a e8bd 8802 8faa
00000350: a58f 98ab 397a eebb d618 373d dbe7 adac
00000360: 41ad 96bc 442f 73b3 f7b8 5abd 41fb 2b2d
00000370: facc 872c d7c8 92ad 1c9e 2eac eaf9 9e2b
00000380: 4c4c e9ac bfef 60ac 6eb2 9abb 1c3e b02c
00000390: c0f9 612c 4857 c4ac 2292 7fad eaa5 9b2b
000003a0: 3c36 522c f18a 27bd 1b5c b0bc 39b9 c22c
000003b0: 5dbb 51ba 04f8 7b29 3ba5 912b 4fd6 05bd
000003c0: 623a 9dad f970 be2c 9b3c 0abd 2c0b f12c
000003d0: ad7e 482d 3dde 852d a9ff f92b b9d5 4d2d
000003e0: 8353 6cbc e2bf 68bd 70cd 8cad b00e fe2c
000003f0: d684 a4aa 61cb b62c 988b 8d2c f1e2 052c
-0.07217549 -0.28921425 0.27388632 -0.029463066 -0.060469065 -9.443968e-10 2.7867162e-12 -0.03805291
1.848202e-11 0.033078495 0.09125605 0.115552336 -0.21726324 -2.3675302e-12 -0.15853736 -0.11832268
0.12589063 0.059480257 -0.15805292 -0.0663668 1.6683013e-11 -0.3108714 -0.16949816 0.06833619
-0.10230861 0.0840318 -0.46879575 -0.059211705 -0.017408531 0.012248747 -0.041680515 8.188127e-12
0.051588986 0.004773585 0.11820321 0.2712165 -1.2376223e-11 -6.0869143e-06 3.1939135e-11 0.0198116
4.665615e-12 -0.08590508 -0.216885 -0.019927235 -0.274467 0.079779044 0.18551365 -0.1504099
0.17931409 0.047937278 0.20262425 -3.960126e-12 -1.1262436e-11 -0.04344321 -0.35214552 0.00772402
0.011970924 -0.026252624 -0.027894042 0.12561502 -0.03568592 -3.2141074e-06 0.03153078 -1.5102673e-11
-3.7871676e-12 0.315092 0.22312175 0.16252242 -0.07844676 -7.361762e-12 6.0337993e-12 -0.1223106
7.646591e-12 -0.2492603 -0.03931983 -1.803577e-12 -0.1304408 -2.7475565e-12 5.1405156e-12 -0.27558422
-0.15959562 -5.148543e-13 0.029558597 -0.07246985 3.436886e-07 0.15831593 -0.117617056 -0.114308864
0.189332 -0.20204234 -0.018507069 5.6925e-12 -2.1149558e-12 0.0041281707 -0.043440193 -4.8064595e-12
-0.052659746 1.5180041e-11 -0.02099936 2.925782e-11 -0.07030081 3.1539968e-09 -0.12563467 -0.012655778
-6.636466e-12 -0.029580913 -0.067001164 0.050642226 0.02181151 -9.57982e-12 -1.6285908e-11 -0.21997477
-2.1144956e-12 0.036948334 0.16206345 -0.047539677 -1.35502096e-11 -0.06964331 -0.022708705 -0.006649501
-0.12415943 -0.15704884 -0.077431664 -0.038021427 0.0039034032 -1.0271624e-11 -0.046463225 -2.3872744e-13
5.412923e-12 -0.018154882 -0.0027619856 -0.025872929 -8.731302e-12 1.8216068e-11 3.174224e-13 -1.3295862e-12
1.4547283e-13 0.120503634 -0.020889327 -7.74238e-12 -0.16416167 -1.1478264e-12 4.9783294e-12 1.5002884e-11
0.006629768 -5.591136e-12 0.008252379 5.9800445e-14 1.9636387e-13 -0.044290964 0.08414053 2.2378494e-12
0.06299085 5.199884e-12 -5.792951e-12 -7.395737e-12 -5.289758e-12 2.1977949e-11 2.3516914e-14 -3.1127342e-12
0.048291247 -0.22899005 0.012472858 0.08441235 0.050536368 -0.0015260867 -0.015866404 0.029667076
1.7597973e-11 -0.12183289 -0.023669727 -0.019293515 0.073990196 0.024595356 0.1466004 -0.035699725
-0.018597314 0.033876732 -0.045795992 0.050781053 1.9969981e-09 0.0032951687 0.051728003 -0.052032635
0.09507859 -0.036740832 -0.13962433 0.036434386 -0.008790047 0.0012383959 -0.010609737 4.5654692e-11
-1.5818499e-13 4.6123643e-12 -0.032368876 -1.7449705e-11 -2.3604584e-12 -1.5988167e-11 -0.0035395147 -6.5634755e-12
8.721083e-12 -0.034312475 0.05826046 3.6058125e-13 -0.07214843 -1.6373101e-12 -1.1947069e-11 6.942746e-12
-1.1671462e-11 -9.356855e-12 -0.113484204 -2.540366e-13 -1.0840119e-12 -0.0072777537 0.04470142 -4.942697e-12
-0.01839316 -5.6620834e-08 -0.053399052 9.776014e-12 3.8596877e-12 -1.6687469e-11 -2.4814656e-12 1.129594e-12
-6.630729e-12 -3.19654e-12 -0.0047209775 5.0091164e-12 3.2113062e-12 -5.580345e-12 -1.452752e-11 1.1059463e-12
2.98729e-12 -0.04090399 -0.021528294 5.5343755e-12 -0.00080006366 5.5948315e-14 1.034873e-12 -0.032675084
-1.787476e-11 5.4126673e-12 -0.033749204 6.8508723e-12 1.13968114e-11 1.5219043e-11 1.7763474e-12 1.1700357e-11
-0.014424208 -0.05682362 -1.600739e-11 7.220745e-12 -2.9224426e-13 5.1953307e-12 4.022959e-12 1.9026415e-12

fc2.bias f4 [32]
00000000: c30b 90bc b332 583d 9799 41be 3fda 76bd
00000010: 42a5 17be c7d3 4b3d 2157 80bd efa6 3fbd
00000020: f969 17be 0f9f 05bd 1898 0c3d bcad 1ebd
00000030: fcaa a6bb 76d7 84bd c965 053c b566 ec3d
00000040: c2b9 d6bd 7b18 e23d 1ba7 f2bc 8b9c 603d
00000050: 6ad6 5bbc e396 393d 286d 2f3c c9b0 47bd
00000060: a91e 8fbe 5b0d 05be 0733 94bd 64cb f1bd
00000070: 3c41 0dbe 69d2 d9bc 7ee6 77bc b014 5bbe
-0.017583733 0.052782726 -0.18906246 -0.06026673 -0.14809135 0.049762513 -0.062666185 -0.04679006
-0.14786519 -0.032622393 0.034324735 -0.038739905 -0.005086301 -0.064864084 0.008141943 0.11543027
-0.10484649 0.110398255 -0.029620698 0.05483679 -0.0134178195 0.045309912 0.010707177 -0.04875258
-0.2795308 -0.12993376 -0.07236295 -0.11806372 -0.13794416 -0.02658959 -0.015130637 -0.2139461

fc3.weight f4 [3, 32]
00000000: b745 103e 6040 e3bd decb 5dbe 5fcf 003d
00000010: 725e 88b9 c93a 13be 1dae b9bd 683f 99bb
00000020: cd4d 803d 36db 38bc a017 763e 3070 062e
00000030: bb88 e1bd de71 a2bd 8173 7c3d bf25 f6bd
00000040: 9975 a3bd 0d4f 05be 3235 5937 88a0 17be
00000050: dc78 27bc efe0 7fbc 0a9b 2f3e b9aa f0b7
00000060: de46 efbd 07a0 01be 6f58 0f3e bdf6 76bd
00000070: 649d 7e3d a630 25be fb25 82be 7dee 50be
00000080: 59eb e7bd ede4 d9bd 3a27 693e 5b35 a13c
00000090: 361d bebb c2cf 8abe c3df 813d 24e8 edb5
000000a0: fe2f 8bbd 8d02 223c a981 86be a761 7831
000000b0: e933 44be c5ce e6bd 3434 0d3e 99fd 49be
000000c0: 6afa ec3d 4eaf d6bc f9e7 813c 286b 8cbd
000000d0: 0298 a03b f625 8b3c c2cf 383e c1ff 803b
000000e0: 6022 f13d 28ae 563d a855 0a3e 5b7c 7f3d
000000f0: 3dad 1bbd 81f6 50be 3dc9 723c 41f4 c53d
00000100: 358a 54be 5d00 913d 6469 473e bfce bfbd
00000110: 17db 43ba 6153 ee3d 0824 2abd 93be 3839
00000120: ddf5 1dbe 7c96 4fbc bd1b 1abd 10ca 0731
00000130: 7eb0 01bd 476a b13d 3436 5cbd 3947 22bd
00000140: ae2a 1fbd 1b14 cc3d be5e 943c 2bd7 8c3e
00000150: d329 61bd dc45 86bb ee37 34be d980 a1ba
00000160: 9080 7ebe 67d6 7f3d 89d1 0cbe 289c cdbc
00000170: 3bb8 0f3e f3b5 1cbd 5d0b 47be 3e36 21be
0.14089094 -0.11096263 -0.216598 0.031447764 -0.0002601031 -0.14377894 -0.090664126 -0.004676748
0.06264839 -0.011282733 0.2403245 3.0567715e-11 -0.110124074 -0.07931875 0.06163359 -0.12018918
-0.07981414 -0.13018437 1.2946593e-05 -0.14807332 -0.010221686 -0.015617593 0.17148986 -2.8689728e-05
-0.11683439 -0.12658702 0.13998578 -0.0602939 0.06216182 -0.16131839 -0.25419602 -0.20403476
-0.11324186 -0.10639367 0.2276887 0.019678762 -0.005801822 -0.27111632 0.06341507 -1.7725438e-06
-0.06796263 0.0098883035 -0.26270798 3.6144259e-09 -0.19160427 -0.11269907 0.13789445 -0.19725646
0.115712 -0.026206639 0.015857683 -0.06856376 0.0049009332 0.016985875 0.18048003 0.0039367382
0.11774135 0.052412182 0.13509238 0.062374454 -0.03800701 -0.20406534 0.014818487 0.09665728
-0.20755847 0.070801474 0.19473797 -0.093656056 -0.00074713066 0.11636997 -0.04153827 0.00017618602
-0.1542582 -0.012670156 -0.03762411 1.9759945e-09 -0.031662457 0.08662849 -0.05376263 -0.039618704
-0.038859062 0.09964772 0.018111583 0.2750791 -0.054971527 -0.0040976834 -0.1759946 -0.0012321725
-0.2485373 0.06246033 -0.13751806 -0.025098875 0.14035122 -0.038259458 -0.19437928 -0.15743348

fc3.bias f4 [3]
00000000: 817a 673d fcba 663d 6564 05be
0.056513313 0.056330666 -0.13026579

fc1.weight f4 [32, 10]
00000000: e27c 9d3d a701 ba3c 87db a6be 8ecb f83e
00000010: 0102 b9bd a009 523d bd2f 1d3e 1d31 60be
00000020: b9ee a8bd 569f aa3d e5af 10be bc9d debe
00000030: 66a0 403e 9062 933b 8740 533e f38b b83e
00000040: e27c 723e 5001 833e a4f0 8cbd 9966 84be
00000050: fd7e 92be 13dd a4be 0be3 063c 07e4 b33e
00000060: 71a5 ffbd ded7 1a3d 8625 753e dff1 06be
00000070: 0e0f a2be 0561 0cbe ef8e dc30 b80a 2930
00000080: 4578 a42e 8cfe 0138 8696 4eae c428 842e
00000090: 8af2 19bb 0774 a0b1 f338 13b6 d7c7 c2ba
000000a0: fd1a 2bbe 3c78 123e c8f7 d33d e6c4 5c3e
000000b0: fc00 3f3e ffc4 1dbe d231 a63e 1cc3 ffbd
000000c0: ee3f 973e 943c babe 9e3e e7bd ed3c 16be
000000d0: 228a c73e f297 b4bd 3a15 453e e3d3 5ebe
000000e0: cb3a 8a3e 9f09 e6bd 97ab 1b3e 0b65 e63d
000000f0: f8d7 023a 2a31 36b7 0ab0 442f cef7 3e3b
00000100: 69ed 89af ffad 352f 7b24 6dbc c987 eeb6
00000110: 67d3 08ba 333b 42bc a2dd 92bc 58a4 49be
00000120: 5b7b b4bd 02ed 453e f20b 21be 40dc 753e
00000130: 816c 8d3e bc89 bfbc fe96 71bd 67c4 a4be
00000140: 3a05 803e 6f41 3cbd 3079 dfbd b1bf 7dbc
00000150: 00bd cbbd 4e24 59bd 6c6e c4bd 36f5 9abb
00000160: bff1 24be c140 303d 17eb f8be 89b0 d2bd
00000170: d5fd 53bd ba5d ff3d 55a1 2d3f ebeb c63c
00000180: ded8 8e3e c940 d6be bb35 db3d 919b 293e
00000190: 5ec6 14bd 6cdd 6abd 7adc 573d 2d80 5f3e
000001a0: 15df 66be c763 f43d ea11 a8bd 1f1a 27be
000001b0: 7a35 ebbc 2463 ccbd fef0 05b2 d6d7 b9b4
000001c0: b050 dcac 9d45 c32d 44b2 3c2d 1450 092f
000001d0: ec3c 12bc 43c2 f2b8 f926 93b9 d8ae 81bb
000001e0: d98c 96b0 7b6c 1bb1 b421 422d 004f feaf
000001f0: d2f1 bf30 4bd9 a6af f281 29b3 92ed 33b0
00000200: f339 1cb1 badf 8132 27ae 523e fcae e33c
00000210: 25f7 423e 1660 8d3e d9e1 11be 8156 ebbb
00000220: a1eb 363e 81f5 573c aaa5 97be 3013 393c
00000230: 6cd2 863e 9792 1fbe 6128 4fbe 5e14 efbc
00000240: bf29 843e dfa5 a4bb 441f b33b d079 1ebe
00000250: b419 8cbe 4598 273d b4a3 4831 a338 60b5
00000260: 0006 11ad 99a2 512e 7959 b22d ee47 bcaf
00000270: 293d 133b 3c16 ffb9 6213 05b9 df6a eabb
00000280: 8572 39be 07d9 95be ea00 983e 90e8 4e3e
00000290: 8acc b5be 035c 233e 0092 2e3d 7fd8 5f3e
000002a0: 1291 bcbe bd5c c6be e4aa 53bd 1246 a53d
000002b0: aaca b53e c23d 813e a69c 91be a63e 9cbd
000002c0: 43f5 1cbe 8c8c 723e 7479 6d3d 225b df3c
000002d0: c56d aa3e 5f2c 6ebe 865c b1bc 0a5d 403c
000002e0: 3ed3 dcbd 9480 89bc 0ceb 3b3d 0106 583e
000002f0: 057b 75be 5c84 213e d230 f4b2 1a9d 2bb1
00000300: e8a1 f92c a03b e938 433a 81ae 8242 fa2d
00000310: 189b 73bb b7aa 9cb5 2cb3 6db8 8601 95bb
00000320: e7d8 2fbe 895b d8be 5c4b aa3e 8bf8 72be
00000330: aa8d 96be 8b2f 2d3e 0966 533e b788 14bc
00000340: c45e 803d 8574 cfbe a5d8 e73b 1f35 8abc
00000350: 8133 1939 9819 153d 276b 34b6 474f a33a
00000360: 327b 06bd f8aa 81bc 93fb a9bc d3ff 3dbd
00000370: b1bb ac39 3591 bbb5 e3e2 972e 1d9c b03a
00000380: efeb c230 82a5 38af a543 2fbc 68f4 82b0
00000390: 2b99 d6b8 fc47 2cbc b7eb b43e 4c90 fabd
000003a0: b345 7d3d e30d 1dbe c3aa a7be f56c 263e
000003b0: f8c0 a0bc 7d5e 6d3e 377f 2a3e 9ab8 fb3d
000003c0: 2a56 ae3a 25b8 d7bb 592f 54ad 1c94 342e
000003d0: ecdf ddac 8ae5 4339 ac18 96bc 8dd1 d7bb
000003e0: 18ef 81bc 0931 d3bc dd80 833c c8e3 b4bd
000003f0: 54b8 e03d 30a1 8fbd 7b6f 423e 2c5c 0dbd
0.07689835 0.022705866 -0.3258936 0.485928 -0.09033585 0.05127871 0.15350242 -0.21893735
-0.08248658 0.08331172 -0.14129598 -0.43479717 0.18811187 0.0044978335 0.20630084 0.36044273
0.23680452 0.2558694 -0.06881836 -0.25859526 -0.2861251 -0.32199916 0.008232842 0.3513491
-0.12482727 0.037803523 0.23940095 -0.13178204 -0.3165211 -0.13708885 1.6047731e-09 6.1497074e-10
7.479221e-11 3.0993062e-05 -4.697267e-11 6.0099065e-11 -0.0023490512 -4.6698037e-09 -2.1937856e-06 -0.0014860582
-0.16709514 0.14303678 0.10349995 0.21559486 0.1865272 -0.1540718 0.32459885 -0.12488386
0.29540962 -0.36374342 -0.1129124 -0.14671679 0.38972574 -0.08818044 0.19246379 -0.21760516
0.2699798 -0.11232304 0.15202175 0.11249741 0.00049912883 -1.0859492e-05 1.7888638e-10 0.0029139402
-2.5088845e-10 1.652367e-10 -0.01447403 -7.10876e-06 -0.00052194897 -0.0118549345 -0.017927948 -0.19691598
-0.08812591 0.19328693 -0.15727213 0.240098 0.27621844 -0.023381107 -0.058981888 -0.32181093
0.25003988 -0.04596084 -0.109117866 -0.015487597 -0.09948158 -0.05301314 -0.09591374 -0.0047289385
-0.16107844 0.043030504 -0.4861686 -0.10287578 -0.051755745 0.12469049 0.678243 0.024282416
0.27899832 -0.41846302 0.10703608 0.1656325 -0.03632199 -0.05734007 0.052700497 0.21826239
-0.22546037 0.119330935 -0.08206542 -0.16318558 -0.028712023 -0.09979847 -7.796414e-09 -3.4615977e-07
-6.261734e-12 2.2199848e-11 1.0726146e-11 1.2488527e-10 -0.008925658 -0.00011575643 -0.00028067062 -0.0039576106
-1.0953968e-09 -2.2617133e-09 1.1035107e-11 -4.6258464e-10 1.3965809e-09 -3.034962e-10 -3.9466563e-08 -6.545743e-10
-2.2733928e-09 1.5119316e-08 0.20574246 0.0277934 0.1903959 0.2761237 -0.1424631 -0.007181943
0.17863323 0.013181091 -0.2961858 0.011296079 0.26332414 -0.15583263 -0.20230247 -0.029184517
0.258131 -0.005024656 0.0054663736 -0.15476155 -0.2736336 0.0409167 2.9196885e-09 -8.352892e-07
-8.243628e-12 4.7665514e-11 2.0275991e-11 -3.424811e-10 0.0022466874 -0.00048653956 -0.00012691089 -0.0071538533
-0.18110092 -0.2926714 0.29688197 0.20205903 -0.35507613 0.15953068 0.042619705 0.2185993
-0.3682943 -0.3874263 -0.051676646 0.080700055 0.35506183 0.2524243 -0.28439826 -0.07629137
-0.15327935 0.23686427 0.057977155 0.027265135 0.33286873 -0.23259114 -0.021650564 0.011740932
-0.10782479 -0.016784944 0.045878455 0.2109604 -0.2397271 0.15773147 -2.842754e-08 -2.4973077e-09
7.094981e-12 0.00011121412 -5.87659e-11 2.8451245e-11 -0.00371713 -1.167259e-06 -5.667207e-05 -0.0045473007
-0.17172585 -0.42257336 0.3326062 -0.23727624 -0.29404956 0.16912667 0.20644392 -0.0090657985
0.06268075 -0.40518585 0.0070753866 -0.016871033 0.00014610404 0.03640136 -2.688446e-06 0.001245954
-0.032832332 -0.015828595 -0.020749843 -0.04638655 0.00032946237 -1.3974847e-06 6.906988e-11 0.001347426
1.4182414e-09 -1.6793503e-10 -0.01069728 -9.528209e-10 -0.00010232845 -0.010515209 0.35336086 -0.12234554
0.06183405 -0.15337329 -0.32747468 0.16252501 -0.019623265 0.23180576 0.16650091 0.12291069
0.0013300825 -0.006583231 -1.2061318e-11 4.105881e-11 -6.306058e-12 0.00018682159 -0.018322311 -0.0065862597
-0.01586108 -0.025780218 0.016052658 -0.08832508 0.10972658 -0.07013166 0.18987839 -0.03451173

fc1.bias f4 [32]
00000000: 9258 82be e550 30be cf32 193d dbc4 62bb
00000010: 1cda 6fbe 7a34 aabe 1a77 83bc 0ef9 c0bb
00000020: e81b 00be a33f 253e 8dd1 c7bd 59f9 42bc
00000030: c63b 71b4 3bfa b6be 0b33 95bd ffdf a6bc
00000040: d2f9 3b3e 32f0 38be 1acf abbe 9571 09bc
00000050: 57e1 97ba fb0f bfbc 1e3d 21bc 05c3 9bbe
00000060: ce15 1cbd d3ab b73d 2233 58be 2509 a43d
00000070: 6884 55bd 2d5e 0cbe 198e 04be 5f11 82bd
-0.254582 -0.17218359 0.03740197 -0.0034602198 -0.23423046 -0.3324316 -0.016048003 -0.0058890646
-0.12510645 0.16137557 -0.097567655 -0.011900269 -2.246662e-07 -0.35737786 -0.07285126 -0.020370482
0.18357018 -0.18060377 -0.33556443 -0.0083888965 -0.0011587542 -0.02332305 -0.009841232 -0.30422226
-0.038106732 0.0896832 -0.21113256 0.08009557 -0.052128226 -0.137078 -0.12944831 -0.063509695

fc2.weight f4 [32, 32]
00000000: 85b7 3bbc 0d5b 9cad 001f 97bd ee8d 2db0
00000010: 94b1 1bbe a67d b9bd 23dc 91ba 7722 3abe
00000020: de9e 55bd d774 03be ccb8 7d3d cc1e e92c
00000030: c04b 562f 93d1 aaac 7fab 5abd fb32 caad
00000040: e31f e63c 1aa8 7bbd 7f19 3b3e e8a9 c9b2
00000050: 3f10 643e e120 f53c a73c 3a2e 95c5 513d
00000060: 1042 8db2 f011 8ebc b489 153e f2ff 4e3e
00000070: 5301 fcac da0c 5bbe 3ae0 473e 2d8b 9ab0
00000080: afd1 043e f087 5cbe bbc0 6fbe f886 ec2b
00000090: 0259 153e 3682 2c3e b45c cbab ac25 d7bc
000000a0: 1f53 662c 0889 e73d d28d 702d ae56 7b2c
000000b0: 6de7 362c 2a7c 403e 6831 65be 8088 fb29
000000c0: 4f2c c73c d48c 66bd 6969 a33d e488 0aad
000000d0: df32 a0bd cd19 efac ccf1 a4ab ec96 0ebe
000000e0: 83ad 322d e126 a2ad 2cb3 02ac 60ac 50be
000000f0: fc5e a42c 90e8 aaac b88f 31be da12 80ac
00000100: ae18 f2bd b903 9b3e 0136 13bd c797 9231
00000110: 9c47 14bc a251 5f3e 419d 8232 c5b9 1b3e
00000120: df2f cb3c 415d 183e 22f9 07bd 51a6 60ad
00000130: 8e28 54b0 f5ab 0f3e f811 c43d 5280 862d
00000140: d76e 67be 992f acbe b7b5 f8bc d6df bc35
00000150: 64e7 893e 050a 053d 402a 1aaa ce4c 613e
00000160: 521a f1ad 14d5 1bbe f0d8 4aba 4d51 613e
00000170: 8764 17ad c145 cdbd 77ad c83a 04c7 3832
00000180: 48a3 e1bd 8a7c 42be 9754 67bd cba8 4fba
00000190: 62a0 0c3e 6508 9f3d 2e08 633b 1349 bbbd
000001a0: 17a6 e1bc 3ca8 96be 7aa1 113e b07a f32c
000001b0: 8bb4 0330 8172 15be 17b1 3f3e d526 00ae
000001c0: 1bb4 5b3d 83f5 403c aad5 9e3e d4e7 06bb
000001d0: cfdb 863e 61ef 51bd d2a4 de2e 6c43 053d
000001e0: 13b2 bfb9 12fc 46be d768 743d d264 ecbc
000001f0: 6ca6 16ad 5cf2 02be fadc 423d 2bb0 daba
00000200: 63fa dabb 38db aa3d a826 99be 6c35 caab
00000210: 0dd7 d6bd f6ab 11bd 3035 5aac d78f 39be
00000220: 7324 3cad 5074 223d c6b1 9fbd 4fce acad
00000230: c15a 5cad 397a 703d 8faf 4ebe 0a16 022f
00000240: b5e2 b0be 6cfb 84bd 2964 123e 9d55 9a2d
00000250: ba98 25be 86aa f02b 5dbb 14ac ccd5 213e
00000260: 517a 5839 a118 732c 77c2 963a 0194 513d
00000270: 96df b9ac d497 7eac f22a 03bd b292 7bad
00000280: da0c b4be f77c 27be f625 193e 9cc5 c2ac
00000290: 5b83 aabe 511d 913d 57c7 6dac 4ec9 13be
000002a0: 91af 662d 8dd9 03be 33dc 80bd 05e4 302d
000002b0: 74c1 42ab d4f8 40be 10ab 6cbe c269 af2c
000002c0: 607c 2c3e 4d55 56be 180c f73d 1218 57ad
000002d0: f9f5 babd 8320 61ad e4b0 94ad 3934 973d
000002e0: e057 65ad 50ef 6cbd def9 943c 082e 0a3d
000002f0: 8176 ceac f56d 50ac 4f91 3e3e 8f3f 00ab
00000300: ecf9 73be 3665 92b9 4229 613e 30a3 bf2c
00000310: 9b56 d4bd c771 bb3d 3b56 862d e158 80be
00000320: 93b4 92ac 5dff 5e3d d1f5 7cb9 7d86 1c2c
00000330: 70b7 a1aa ef98 f4bd 0fc6 ae3d 914b 6d2c
00000340: 06d9 96be 5fda e5bd 4428 a7bc b0a3 f72c
00000350: b189 a0be 67ca 582d 7c4c afad 0737 a1be
00000360: 2955 6bad dad4 4c3c 8c0c 71bd e337 d63d
00000370: 3fce 43ad 0d4e c4bd 0937 f23d 5ac3 64ac
00000380: 4e7e 493e 85f5 ba3c ee63 273b b63e 682d
00000390: fb34 b1bd 81df 9ebe 8087 91ad 018c 5c3e
000003a0: a422 6f3d c255 0d3e 5453 803d cc39 c62c
000003b0: 08aa ed30 a3b6 cbbd a640 993d d10e 572d
000003c0: 58a2 21be 3e46 1abe 6c15 9cbe 06f1 db2c
000003d0: 659b edbd 9f70 142d 01f3 91ac c52c d8be
000003e0: 1a97 e32b f23d 243d cac4 663d 4841 9ebe
000003f0: a7a8 5f2d 6ba1 a43d dcc1 69be 858f d231
-0.011457329 -1.7775581e-11 -0.0737896 -6.313873e-10 -0.1520446 -0.09057169 -0.0011128228 -0.1817721
-0.05215346 -0.1283754 0.061943814 6.6256774e-12 1.9490098e-10 -4.854958e-12 -0.053386208 -2.2987381e-11
0.028091377 -0.06143961 0.18271445 -2.3476744e-08 0.22271822 0.029922904 4.2345374e-11 0.05121382
-1.6444602e-08 -0.017342538 0.14603311 0.20214823 -7.162418e-12 -0.21391621 0.1951913 -1.1244531e-09
0.12970613 -0.21536231 -0.23413365 1.680627e-12 0.14584735 0.16846547 -1.4449748e-12 -0.02626308
3.2731107e-12 0.113054335 1.3673911e-11 3.5717362e-12 2.5992223e-12 0.18797365 -0.22382128 1.1170318e-13
0.02431312 -0.056286648 0.0797909 -7.874788e-12 -0.07822203 -6.795653e-12 -1.1720013e-12 -0.1392476
1.0156656e-11 -1.8434533e-11 -1.8573572e-12 -0.20378256 4.6717057e-12 -4.8575102e-12 -0.1733998 -3.6400718e-12
-0.118211135 0.30276278 -0.035940174 4.2664143e-09 -0.009050276 0.21808484 1.5205503e-08 0.15207584
0.0248031 0.14879324 -0.033196576 -1.27698555e-11 -7.718278e-10 0.1403044 0.0957374 1.5291022e-11
-0.22600876 -0.33630064 -0.030360086 1.4072236e-06 0.2693435 0.03248026 -1.3692606e-13 0.22001955
-2.7410216e-11 -0.15218002 -0.00077380147 0.2200367 -8.605678e-12 -0.1002307 0.0015310486 1.07554605e-08
-0.110174716 -0.1899282 -0.056477156 -0.00079215755 0.13733056 0.07765273 0.0034642327 -0.09144797
-0.027545018 -0.29425228 0.14221755 6.9200964e-12 4.791409e-10 -0.14594461 0.18719898 -2.913832e-11
0.05363856 0.011777285 0.31022388 -0.0020584958 0.26339576 -0.05125368 1.0124669e-10 0.032535
-0.00036563035 -0.19432095 0.059670296 -0.028856669 -8.563466e-12 -0.12787765 0.04757402 -0.0016684582
-0.0066826805 0.08342594 -0.29912305 -1.4367791e-12 -0.104902364 -0.035564385 -3.1009188e-12 -0.18121277
-1.0694656e-11 0.039661705 -0.077975795 -1.9645756e-11 -1.25257036e-11 0.05871031 -0.20184158 1.1831261e-10
-0.34547964 -0.064932674 0.1429602 1.7545793e-11 -0.16171542 1.7100355e-12 -2.1136072e-12 0.15804213
0.00020644932 3.4546049e-12 0.0011502047 0.05116654 -5.2828393e-12 -3.6179853e-12 -0.032023378 -1.4300271e-11
-0.35166055 -0.16356264 0.14955887 -5.5357507e-12 -0.3330334 0.0708567 -3.3790382e-12 -0.1443226
1.311297e-11 -0.12875958 -0.06292 1.0055072e-11 -6.9191116e-13 -0.1884492 -0.2311213 4.9855406e-12
0.1684432 -0.20930977 0.120628536 -1.222668e-11 -0.09128947 -1.2796988e-11 -1.6904207e-11 0.073830076
-1.3036655e-11 -0.057845414 0.018185552 0.033735305 -5.8680287e-12 -2.9619616e-12 0.18610118 -4.556294e-13
-0.23825806 -0.00027922698 0.21988395 5.446664e-12 -0.10368081 0.09152561 1.527233e-11 -0.2506781
-4.1696173e-12 0.054442752 -0.00024124167 2.224359e-12 -2.872663e-13 -0.11943232 0.085338704 3.3721673e-12
-0.2946245 -0.112232916 -0.020404942 7.038335e-12 -0.3135505 1.2323121e-11 -1.9929162e-11 -0.31487295
-1.3377113e-11 0.01250192 -0.058849856 0.10459878 -1.11302625e-11 -0.095851995 0.118269034 -3.250919e-12
0.19677088 0.022822151 0.002554174 1.3201598e-11 -0.08652683 -0.31029895 -1.6544766e-11 0.21537782
0.058382645 0.13802245 0.062658936 5.633915e-12 1.7292345e-09 -0.099469446 0.07483034 1.2224625e-11
-0.15784585 -0.15065858 -0.30485094 6.2511133e-12 -0.11601905 8.437833e-12 -4.1481267e-12 -0.42221656
1.6171259e-12 0.04009814 0.056340016 -0.3090918 1.2713531e-11 0.080386005 -0.22827858 6.1281207e-09

fc2.bias f4 [32]
00000000: ebaa 04bd c6c4 5dbe aec7 a63d 9310 e0bc
00000010: 026f 89bd e6d1 89bd 1876 1bbe 5889 3abc
00000020: 3278 d4bc 438d 09bc dc4e 69bd 7e85 0cbd
00000030: a8ec 373b 9f21 b6bd e209 eabd 9247 2ebb
00000040: 3f7e 083e a7fc 02bc 029a 95bd 17ba 9ebd
00000050: 47c8 f6bd 156f fbbd b784 feba 49e4 2fb4
00000060: 97da cabd 6e3f a5bd e1a4 f4bc efc4 05be
00000070: e96c fbba ed35 a33c 391d 8dbd a155 a8bd
-0.032389563 -0.21657094 0.08143555 -0.027351653 -0.06710626 -0.06729488 -0.15181768 -0.011385284
-0.02593622 -0.008395496 -0.05695997 -0.034306996 0.0028064642 -0.088931315 -0.11427666 -0.0026592952
0.13329409 -0.007994807 -0.07304765 -0.077503376 -0.120499186 -0.122770466 -0.0019418214 -1.6381195e-07
-0.09904974 -0.08068739 -0.029863777 -0.13063405 -0.0019182238 0.019923175 -0.068903394 -0.082194574

fc3.weight f4 [3, 32]
00000000: 06d5 5e3d 73e1 803e 9e69 3b3e 2b34 c9bd
00000010: c9f2 a3bd ec59 1a3b 567d 66be d8f5 55be
00000020: d174 c7ad b302 44be 2fd5 3fbe d4b8 073e
00000030: ad71 133e 103e 90bd 5fa2 29be 30bd 2dad
00000040: 20f3 593e aac6 5abd a74c e13d 1f20 37be
00000050: 2cfc f9bc 9211 2a3c 5b1d 383b 487a a038
00000060: 5dbb 80be da7c 01be 881a 203c d34e 653e
00000070: fffa 853d 145d 83bd 3679 6fbe 1eb7 82be
00000080: 5191 9abc c2d1 8abd 458a 713d 0dfd 1d3e
00000090: b0e4 2cbe 0a44 7e3e 7c25 11bd 42cd babd
000000a0: 70f9 3c2e 7bce ef3d e9e2 cdbd 398c 173d
000000b0: 2db7 2f3e 3930 8fbd 880a 2bbe 96a7 37ad
000000c0: dfe4 703e 11e7 573d 62f4 013d be37 fabd
000000d0: 86d6 a7be c0f7 4abd e72a df3a 3af5 f132
000000e0: 674a 2dbe 84e1 21be 0226 36bb 43dc abbc
000000f0: dde0 f63b 66bb 233c 4b33 aabd 755b 783e
00000100: 0233 79be f01c 2fbe 0001 743c 5720 933e
00000110: ad5c 85be 0950 fe3c 68eb 553e edb2 173e
00000120: c35c f8ad 94a0 823d 29d5 923d 3298 02bd
00000130: a10d babd d587 e5b4 c29a 903d a10a aeac
00000140: 5097 0cbd 1a67 8a3d 28f3 aebc deb5 03be
00000150: 5afd 953e d634 ce3d 86df 8f2e 6473 ee38
00000160: 96a7 49be b7a9 05be d12a 6fba 407d 51ae
00000170: 18e0 3ebc a734 403d 0e99 08bd 9ca3 a5be
0.054402374 0.25172004 0.18302009 -0.098244034 -0.08005292 0.0023552133 -0.2250875 -0.20894563
-2.2675558e-11 -0.19141655 -0.18733667 0.132541 0.14398833 -0.070430875 -0.16565846 -9.8759195e-12
0.21284151 -0.053412117 0.110009484 -0.17883347 -0.030515753 0.010380166 0.002809367 7.652171e-05
-0.25142947 -0.12645283 0.009771951 0.2239335 0.06542014 -0.064142376 -0.23386082 -0.25530332
-0.01886812 -0.067782894 0.058969755 0.15428562 -0.16884112 0.24830642 -0.03543614 -0.09121181
4.2967796e-11 0.11709305 -0.10053045 0.03699896 0.1715972 -0.069916196 -0.16703236 -1.0439557e-11
0.23524807 0.052710596 0.031727202 -0.12217663 -0.32780856 -0.04955268 0.0017026336 2.8167609e-08
-0.16922913 -0.15808684 -0.002779365 -0.020979052 0.00753413 0.00999341 -0.083105646 0.24253638
-0.24335864 -0.17100883 0.014892817 0.2873561 -0.26047269 0.031044023 0.20890582 0.14814349
-2.823553e-11 0.06378284 0.07169563 -0.031883426 -0.09084631 -4.2753405e-07 0.07060768 -4.9465575e-12
-0.03432399 0.06757946 -0.02135618 -0.12862346 0.29294854 0.100686714 6.542593e-11 0.000113702175
-0.19692835 -0.13053022 -0.00091235066 -4.7632343e-11 -0.011650108 0.046925213 -0.03334909 -0.32351387

fc3.bias f4 [3]
00000000: bd3e 06bd 86dd d6bc 2bb6 3bbc
-0.032774676 -0.026228677 -0.011457006

fc1.weight f4 [32, 10]
00000000: fd95 cc3e c59b 55bd c590 f53d 7de7 d93e
00000010: 4d14 a6be 4761 6bbe 8022 be3c 0a26 103e
00000020: 6e98 fc3d b8be ca3e 38f2 ae3c 3303 cebd
00000030: 7a27 6dbd e447 d1bd 216a cf3c 217b cebd
00000040: 989c 423d 816d 98bc 8aab 2b3d 038b a9bd
00000050: 244b c7bc 9249 c6be e1a6 96bd b8b6 863e
00000060: ac45 87bb f69c 753e 6767 453e f18c 803d
00000070: 29a2 3d3e 0ecd fd3d d8b4 a53e eea7 fd3c
00000080: f96c 5abe eb69 913e 942b b1be d41e e6bd
00000090: c49f 8f3d b409 87bc b67e 523e b882 a13e
000000a0: 456a ddbc 6736 3fbd b93a f2bc 38e1 17bd
000000b0: 8aa8 0cbb 8037 d73b 2a52 99bc e8fe 7abb
000000c0: 0e4d 493d 500a c4bd bc7f 43be 9fc7 4bbc
000000d0: 2338 a63e 4282 23be 300c c63e 7e1c b83d
000000e0: a974 40be 61d7 3fbf 3e4d 2b3e 626d 0fbf
000000f0: 9c46 50be ead5 bbbd e00c c53d e483 36be
00000100: a9b4 9e3c 7e0e 58bc de07 053e b3ff efbb
00000110: ba90 1d3e 2764 c8bd 7cb4 94be 938d 96be
00000120: 8e92 58be 0798 ddbe 714c b93e ac8e d43e
00000130: a1ab 11bd 3196 d8be 561b 6ebc f100 e93d
00000140: 70d3 243b a9ea 9ebb ea07 8aae dbf4 933b
00000150: e5fb dbbb 8015 3bba 2746 cbbc 2841 0bae
00000160: ffc2 7dbc ac39 3abc f3bb aabd 400d 8bbe
00000170: dd74 a53d 75e1 25bc 7a44 07be f046 4ebd
00000180: c72d 063e d027 84be 4d3a 4c3e ffa0 993e
00000190: 74a4 fdb1 92ca 3db7 e4da 0e2f 8c96 c4b2
000001a0: c7d9 6f32 8850 9f2c 3d39 afbb bcd3 9fb9
000001b0: c831 40bc 365b 85bb d4ba 0d3d ad0c d9bc
000001c0: 2df8 a6bb f23a 963c 88ff 1ebd 73ac f9bc
000001d0: 2bb4 f0bc 263c a43c cfa2 b7bc f1c6 a2bd
000001e0: 0e09 4d3d 6ead 18bd 5324 93bd 2d7d ed3c
000001f0: 6542 1d3c 9d1e 79bd 396c 03ba 9bf8 72bb
00000200: 26bc f73a b3ab bbbd aa58 313d 3fee 81bd
00000210: 7383 96bc ca4b 0b3d 037d 0fbd 2504 16bd
00000220: 1091 1abd 2858 fa3c fb75 d8bc 6bd4 68bd
00000230: 2a62 c23d 5ef8 4abe 8a32 56be 483c 0cbe
00000240: 72f3 853e dd3f a7bd 5269 423e aa17 6fbe
00000250: 0705 2f3e b113 5a3e d7b2 15be 16ce fe3d
00000260: 1bbe a93e 8d0e cebd 0c66 483f e59b 393e
00000270: 8974 8b3e e364 0fbc fe49 9bbe 8777 f6bd
00000280: 53f1 043f 031c 1ebe 91fa a03d 9ecd f63d
00000290: acc6 d23d 6b23 d4be 6f86 4dbd 4c3f e0bd
000002a0: 6898 95bd 85ec 0c3e e404 3d3e fbf6 0f3e
000002b0: 8a88 373e c527 12be 4968 c33e 19b2 043e
000002c0: 6a11 3f3b 70f9 6ebe 826c 39bc 6490 8a3d
000002d0: 8ef9 7bb0 0732 6339 f919 3eb0 d80c 96ad
000002e0: 95c4 b7ac d28d 582c e6e0 1c3d 22f3 813c
000002f0: febd 8c3c ccdc 5dbd 6633 e33e a444 85be
00000300: 2be8 ddbd c860 b93e 7ea0 4cbd 5dde e9be
00000310: 0567 05be 22e4 1e3c e874 913e a37e 82be
00000320: a8e6 622e 14ff 26af 14f6 a9ad cc2c ec2e
00000330: 92fa d92e b9d4 162e c149 8932 cb42 c12d
00000340: e7c8 c3af c5ba 60b1 1866 8cbe 24ea bcbb
00000350: e226 6dbd 902d c0be cb74 843e 81a0 973e
00000360: 4510 823e 3929 fbbd 26d0 f5bc 0977 653d
00000370: 4c73 2c3e f52c 073d b5ef 943e 7b98 f53a
00000380: d684 e73d 65cb b2bd 614e 3dbe 3fa4 6c3e
00000390: 3cec 20be d6cf fbbd 1500 40bd 845c 9d3d
000003a0: 0e01 a73e 7c5d fdbd 9100 c2bd 6841 66be
000003b0: 0af1 ecbc ec63 1a3c 4a97 07bd 47f5 d83d
000003c0: 0a4f 093e 3376 55be 18a5 99be e7a3 3f3e
000003d0: fd29 2fbe 6e1d 8bbe 9411 33be bbed 4fbe
000003e0: 3b0c 673e 472b 1b3d 0518 743c 72fb 8abe
000003f0: a15b f03d ae6a eebd d266 dc3c 9eba 0838
0.39958182 -0.052150507 0.11990503 0.42559424 -0.32437363 -0.22986327 0.02320981 0.14077011
0.12333761 0.39598632 0.021355733 -0.10059204 -0.057898976 -0.1021879 0.02531916 -0.10082079
0.04751262 -0.018606903 0.04191164 -0.082784675 -0.024327822 -0.38728005 -0.073560484 0.26311278
-0.0041281786 0.23985657 0.19277726 0.062768824 0.1851889 0.12392627 0.32364535 0.030963864
-0.21330632 0.28401121 -0.3460356 -0.11236349 0.07012895 -0.016484119 0.20556149 0.31545043
-0.027028212 -0.04668274 -0.029569017 -0.03708002 -0.0021462762 0.0065678954 -0.018715937 -0.0038298909
0.04914575 -0.095722795 -0.19091696 -0.01243773 0.32464704 -0.15967658 0.38681173 0.089898095
-0.18794502 -0.7493802 0.16728684 -0.5602628 -0.20339435 -0.0917166 0.09621596 -0.1782375
0.019373255 -0.013187049 0.12991282 -0.007324183 0.1538724 -0.097847275 -0.2904395 -0.29404888
-0.21149656 -0.4328005 0.36191133 0.415151 -0.03556407 -0.42302087 -0.014532885 0.11377133
0.002515044 -0.004849751 -6.276919e-11 0.004515273 -0.006713378 -0.00071366876 -0.024813725 -3.166281e-11
-0.015488385 -0.011366289 -0.0833663 -0.27158546 0.080789305 -0.010124554 -0.13209715 -0.05036062
0.131034 -0.25811625 0.19944115 0.30005643 -7.3819653e-09 -1.1312442e-05 1.299259e-10 -2.2885864e-08
1.3961148e-08 4.5279926e-12 -0.0053473995 -0.00030484598 -0.011730619 -0.004069711 0.034602 -0.026495302
-0.005095503 0.018338654 -0.038817912 -0.030477738 -0.029382786 0.020048212 -0.0224165 -0.07948101
0.050057463 -0.03727477 -0.07184663 0.028990353 0.009598349 -0.06082021 -0.000501338 -0.003707445
0.0018900677 -0.091636084 0.043297447 -0.0634427 -0.018373227 0.034007825 -0.03503133 -0.036625046
-0.037736 0.030559614 -0.026423445 -0.056843203 0.094913796 -0.19821307 -0.20917717 -0.1369487
0.26162297 -0.08166478 0.18985489 -0.23348871 0.17091762 0.21296574 -0.14619003 0.124416515
0.3315285 -0.10061369 0.7828071 0.18125875 0.27237347 -0.008752081 -0.3032989 -0.12034517
0.5193073 -0.15440373 0.07860292 0.12050937 0.102918 -0.41433272 -0.050177034 -0.10949573
-0.0730446 0.137621 0.18458897 0.1405906 0.1792318 -0.14272983 0.381655 0.12958564
0.0029154667 -0.2333734 -0.011317374 0.067658216 -9.1667907e-10 0.00021667044 -6.9158507e-10 -1.705873e-11
-5.222998e-12 3.0774172e-12 0.038300417 0.015863005 0.01718044 -0.054165646 0.4437515 -0.2602893
-0.10835298 0.3620665 -0.049957745 -0.45677462 -0.1302758 0.009697946 0.28409505 -0.2548724
5.1591315e-11 -1.5188234e-10 -1.9322356e-11 1.0739995e-10 9.912528e-11 3.4294987e-11 1.5982438e-08 2.1971222e-11
-3.5613043e-10 -3.2702456e-09 -0.2742164 -0.0057652164 -0.05789841 -0.3753476 0.25870356 0.29614642
0.25403038 -0.12263722 -0.03000648 0.056021724 0.16840857 0.03300186 0.29089132 0.0018737459
0.11304633 -0.08730201 -0.1848693 0.2310953 -0.15715116 -0.12295501 -0.04687508 0.076836616
0.32617992 -0.12371346 -0.09472764 -0.22485888 -0.02892353 0.009423237 -0.033103265 0.10593658
0.13409057 -0.2084587 -0.3000877 0.18714868 -0.17105861 -0.2717089 -0.17487174 -0.2030553
0.2256326 0.03788307 0.014898305 -0.27144963 0.11736227 -0.11641441 0.026904497 3.2598728e-05

fc1.bias f4 [32]
00000000: 46af 69be d25f 8bbd 1d3f a2be d2d5 16be
00000010: eada 3cbe 569e aa3b c963 98be 4be4 a83d
00000020: 6b3c 1cbd 4f4a f03d 8a0a 7abc 2b59 15bd
00000030: a1c6 4abd 598f 5dbd 5327 0e3e 4ba1 623e
00000040: 5ea5 7b3d 6789 b6bd d408 ddbd e594 b93d
00000050: b32e eeb5 cee9 7bbb 20db c2bd 4925 85be
00000060: 674b 943d 833f 6e3d a3c6 09be 6d8f 82b6
00000070: 60bd d7bd 2273 b23d 5ecb a7be 8f0c 8f3c
-0.22820768 -0.06805386 -0.31688777 -0.14730003 -0.18442884 0.0052068634 -0.2976363 0.082466684
-0.038143557 0.11732923 -0.015261302 -0.03646199 -0.049505834 -0.054091785 0.13882188 0.22131841
0.061437003 -0.08912926 -0.107926995 0.090616025 -1.7745973e-06 -0.003843892 -0.09514451 -0.2600501
0.07240944 0.05816604 -0.1345468 -3.890999e-06 -0.10534167 0.08713366 -0.32772344 0.017462043

fc2.weight f4 [32, 32]
00000000: 9c44 b13b 1084 b42d d3b9 13bb 32ba 763c
00000010: b434 1f2d 69fe 072b f40c 7f2a 2308 0cbc
00000020: 68b9 1cad b128 973b 8558 4cac 0060 912c
00000030: 92b0 cf2c 8d4c acac 0b64 f7bc 879e c8bb
00000040: e45e c6b9 b962 2ebb 5691 882c 564c 69bb
00000050: 6074 88ac a053 862d a769 14ad e64c 762b
00000060: 09a0 aeb7 009a 19a8 0335 8e2c 2ba0 09ac
00000070: c399 8baa 1c73 92bb 82a6 242d 12d5 0fac
00000080: 1305 093c b449 092b 04c7 a93d 5403 f33d
00000090: cbda a0b7 a171 783e dce0 75bd 52c1 11be
000000a0: f5a2 702d 12dc be3d 74b6 a5ad 8ff7 1ead
000000b0: 90d7 80ab a5c8 6aad 1bb1 833e 8eab 08be
000000c0: 2329 85bd b173 bdbd 4cb8 3b3d c419 42be
000000d0: ce61 fb2b 8723 b7bd e29f 80b9 3543 58be
000000e0: 2def 8ebe 8745 8ebc 6478 29bd 48e1 27ad
000000f0: 8596 39be 4639 743e 0327 973d 64c4 81bd
00000100: e073 b5a9 5d1d a42c ea29 1bbe 6da8 482d
00000110: efb7 50ad c255 36ac 1677 682d 1401 7ebd
00000120: 8941 8d2d 7d07 03bd af3b 4c2d 01ab 81ad
00000130: e4eb 0dad fc98 90ac 2a86 f8bc 040a 442c
00000140: 7773 5ebd df35 debc fccf 1eac 39b2 8b3d
00000150: 9314 f62c 7da4 e9ac 5864 6a2c 7bd6 f2ac
00000160: fb20 c5bc e6ab 942b 6471 66bb 4b69 d22c
00000170: 9d24 27ac 04e0 b03d 1d2a f3ac 0006 d2a9
00000180: 808a 223e a83a 22ac fe6d 143e cc8f 97be
00000190: e09e f92b 253b 3bb9 c1a0 77be 97c7 78bd
000001a0: 320b 4a2d 3a23 fcbd a78a 5d2d 5aa6 a4ad
000001b0: 40bd 46ad c2fa 6d29 d565 1d3e b9c0 44be
000001c0: d461 183e d39d c4bd 74cf e93d 0024 83be
000001d0: 8edc d72c a2c1 802b a788 bdbd eaf4 113d
000001e0: 9b5e 0cbe 3e98 6b3d 84db ecae 9eba b12c
000001f0: 617a bebd 1c69 39be 914c 263e b936 8e2c
00000200: d127 afbd 09c5 4fac df6e 0a3e 71a1 26be
00000210: e91a b5ac 7578 52ad 46a0 b6ad 34be 6a3d
00000220: d2c2 8fac f089 b63d c708 682d 41e3 012d
00000230: 3e13 82ac 2c32 2c2c 36a9 16be 62f7 1f3e
00000240: 74bb 333e 4dfe 63be cb95 cbaa 3c4a b0bc
00000250: b65d 392c 3801 1b2d 448e a12c fef6 05be
00000260: 0733 d3bd 888a dbbc f142 a12c 6a6e bdac
00000270: 254c 9b2d 8750 80be 0f1a 442b aa55 09bd
00000280: 3e1b e6bd fd3a 9fac 2a67 a63d 8187 8e3d
00000290: 8d0c 4dad 2611 33ac db76 35bd b211 bbbd
000002a0: 171b b8ad f7b0 3bbd 5481 832a 8245 a82b
000002b0: 6c2f 4ead b90e 0a2d 9e83 08be 3836 06bd
000002c0: df97 ec3d 6781 84bd c55c 38bb 0d95 47be
000002d0: 2d4f 582a 62e0 46ad 451b 412e 0f52 e2bd
000002e0: 8bb8 72be 3f71 ddbd 9f4b 07aa ccbb 0e2d
000002f0: 7cef 3cab 092e 78bd 2971 fdbb 9ac2 c7aa
00000300: f694 8a31 9052 c92b 4aed 852c 28d1 96ba
00000310: 00a3 93ac ee12 aaac 60b3 6f2d 7b63 1fbd
00000320: bb92 84ad 2d3c acbc beb5 782d b5a2 0a2d
00000330: 2018 8ea9 674d 792c 1917 1ab9 7363 b932
00000340: 7596 eabb 12d0 d3b9 0baa 892d 14cd 31ad
00000350: e1af 26ad f7fd 1730 7ad9 b92c 349e bd2c
00000360: 104e 8a30 7743 212c 469e c72d 0c73 66ad
00000370: 5463 12ad dddd 8bbb ec9a 772b 5dea 89bb
00000380: 6694 a3bd 9315 22b7 2443 223e 1f1e fd3d
00000390: 8084 19ab da0b acbb d29e bdbd cf05 b7be
000003a0: 5f2a 012d da76 5fbe b0b7 e5aa 4466 fe2c
000003b0: 53c7 582d b543 2d2c 994e 68be aa71 42be
000003c0: 74f1 3a3e e15a 383e b5e1 4bbb eef9 a3bc
000003d0: babf 192d 1ca0 7bbd f668 7ebd 8bcf 963b
000003e0: 8522 e43d 97ae ac3c ec89 862d 6875 802b
000003f0: ed90 92bd aed0 abbe 4b9e ccbd 0b64 a2bd
0.00540979 2.0522278e-11 -0.002254118 0.015059041 9.049806e-12 4.83147e-13 2.2653044e-13 -0.008546862
-8.908742e-12 0.004613005 -2.9039282e-12 4.131806e-12 5.902897e-12 -4.897033e-12 -0.030199071 -0.0061224136
-0.00037836202 -0.0026609136 3.881488e-12 -0.0035598478 -3.8782727e-12 1.5271173e-11 -8.4362855e-12 8.7503475e-13
-2.0816939e-05 -8.5265996e-15 4.0417682e-12 -1.9557782e-12 -2.4798054e-13 -0.0044692885 9.359293e-12 -2.04398e-12
0.008363026 4.877446e-13 0.08289912 0.11865869 -1.917537e-05 0.24262096 -0.060028896 -0.14233902
1.3678604e-11 0.09319319 -1.8839354e-11 -9.036229e-12 -9.154778e-13 -1.3345912e-11 0.25721058 -0.13346693
-0.06501987 -0.09250582 0.045830056 -0.18955141 1.7861769e-12 -0.08942323 -0.00024533184 -0.21119387
-0.27916852 -0.017367138 -0.04137458 -9.5428734e-12 -0.18123825 0.23849973 0.07380488 -0.06336287
-8.058116e-14 4.6644203e-12 -0.15152708 1.1406082e-11 -1.1864273e-11 -2.591136e-12 1.32141156e-11 -0.062012747
1.6058948e-11 -0.031989563 1.160931e-11 -1.4741543e-11 -8.0673e-12 -4.109711e-12 -0.030337412 2.7858835e-12
-0.054309335 -0.027125297 -2.2568605e-12 0.06821103 6.9940247e-12 -6.64052e-12 3.3309102e-12 -6.901866e-12
-0.024063578 1.0563744e-12 -0.00351628 5.980249e-12 -2.3752452e-12 0.086364776 -6.911151e-12 -9.326914e-14
0.15873146 -2.3054145e-12 0.14495084 -0.29601896 1.7736611e-12 -0.00017855743 -0.24182416 -0.06073722
1.14848565e-11 -0.123114064 1.2593183e-11 -1.8718516e-11 -1.1297019e-11 5.284207e-14 0.15370877 -0.19214143
0.14881068 -0.09600415 0.11416522 -0.25613403 6.135154e-12 9.148691e-13 -0.0925458 0.03563396
-0.13707964 0.057518236 -1.0771031e-10 5.0513612e-12 -0.09300686 -0.18106502 0.16240145 4.041958e-12
-0.08552516 -2.9525846e-12 0.13518856 -0.16272523 -5.147317e-12 -1.1963865e-11 -2.076218e-11 0.057310298
-4.085934e-12 0.08913028 1.3189622e-11 7.3832615e-12 -3.6969585e-12 2.4470521e-12 -0.14712986 0.15621713
0.17551976 -0.22264977 -3.6163984e-13 -0.021519773 2.6342101e-12 8.8110005e-12 4.59169e-12 -0.13082501
-0.10312467 -0.026799455 4.583327e-12 -5.3839615e-12 1.7655275e-11 -0.25061437 6.966935e-13 -0.03352896
-0.11235665 -4.525601e-12 0.08125146 0.06959439 -1.1655688e-11 -2.544695e-12 -0.044302803 -0.091342345
-2.0930408e-11 -0.045823064 2.3360014e-13 1.195641e-12 -1.1720274e-11 7.847661e-12 -0.13331458 -0.03276655
0.115524046 -0.06469994 -0.0028131467 -0.19490452 1.9212123e-13 -1.130482e-11 4.390734e-11 -0.11050808
-0.2370321 -0.108126156 -1.2016645e-13 8.113465e-12 -6.712337e-13 -0.060590778 -0.007734437 -3.5484533e-13
4.0332635e-09 1.4304825e-12 3.8064317e-12 -0.0011506425 -4.196088e-12 -4.8337922e-12 1.3625406e-11 -0.03891323
-1.5071824e-11 -0.021024788 1.4137523e-11 7.88052e-12 -6.310252e-14 3.5427995e-12 -0.00014695189 2.1582059e-08
-0.007159049 -0.0004040008 1.5650611e-11 -1.0106822e-11 -9.4750605e-12 5.5294386e-10 5.282161e-12 5.389267e-12
1.0063008e-09 2.2916927e-12 2.2693968e-11 -1.3099532e-11 -8.321194e-12 -0.0042683915 8.7967025e-13 -0.0042088465
-0.07987289 -9.660976e-06 0.15845925 0.12359261 -5.45404e-13 -0.0052504363 -0.09258808 -0.3574662
7.342209e-12 -0.21822682 -4.080603e-13 7.230468e-12 1.2322437e-11 2.4622364e-12 -0.22686233 -0.18988672
0.1825617 0.18003418 -0.0031109874 -0.020016637 8.739615e-12 -0.06143199 -0.062111817 0.004602378
0.111393966 0.021079345 1.5295286e-11 9.127534e-13 -0.07156549 -0.33557647 -0.099911295 -0.07929238

fc2.bias f4 [32]
00000000: 5554 fbbc c4e8 13be 2e57 c5bd 1277 93bd
00000010: d382 e9bd c38a 52bd 943e e9bc 7f19 36bc
00000020: fef4 0ebe ecaa 9cbd 9a77 a63b 79c9 46be
00000030: bf35 6abd fe67 793d bd64 21bd 1b33 9bbd
00000040: d43e 69bc b5fd b8bd 34f4 06be a3e4 02be
00000050: 0fce d1bd 9954 4cbd a6e2 cc3b 0a4e 2cbe
00000060: c7e8 8b3d fcd5 3fbd a971 04bd 4739 85bd
00000070: 2353 72bd 08a7 11be 4881 32bd b10d 82bc
-0.030679861 -0.14444262 -0.09635769 -0.07200445 -0.11401906 -0.051401865 -0.028472222 -0.011114477
-0.13960645 -0.07649788 0.0050801756 -0.19412793 -0.057180163 0.06089019 -0.039402712 -0.07578107
-0.014236171 -0.09032766 -0.13179094 -0.1278253 -0.10244381 -0.049885366 0.0062526045 -0.16826645
0.06831508 -0.04683493 -0.032334957 -0.065050654 -0.059161317 -0.14223874 -0.043580323 -0.01587567
