database/trained_drone_swarm.pth (torch, 340144 bytes, 90 tensors)

fc1.weight f4 [64, 12]
00000000: 4904 08bb dbd4 3c3e 538b cb3d c4a9 1ebe
00000010: 32f6 9ebd 5ca6 d4bd 1c58 f23d 03d0 f3bd
00000020: 6046 1ebc 7e90 c7be 3fb3 3e3c 0441 2ebe
00000030: 8547 bd3c c095 f43c 075a 2e3d dc3d 75be
00000040: eb6a 1cbe 0200 25bd 5bb7 573e 7d54 95be
00000050: 946a cbbd 8910 dfbe 0f2e fa3d 1eef 753e
00000060: 89bc d33e dda2 583d 9904 393d 8c3c 183d
00000070: 4646 1fbe 8eab a0bd b5aa 683d f5dd 383e
00000080: 8967 323d f8b5 5cbe 6353 02bc de2b 25be
00000090: 6875 963e 2b1d 5abe f775 f2bc f178 91be
000000a0: c331 99bd a839 0fbe 690a 8a3e e1f4 0abd
000000b0: 35d6 933c 6c5a 2e3e dc83 d9bd eb34 ecbd
000000c0: e835 293d 48c0 8c3e 0ad4 3bbe 6c1c a1bd
000000d0: bc37 60bd 3862 8bbe b23a 36be 64ca 2c3e
000000e0: 6a66 243e 9c3b a73d b03b bb3d 508a 703d
000000f0: b212 943e 6efc a6bd a0b1 423d f322 54be
00000100: 0998 f73c 44c1 ad3d 74ad c3bd 0e5c 4c3e
00000110: 1de1 f83d 55b6 763d bd1d a13e c1a5 903d
00000120: 0714 54be 945a 64be 7c48 d73d 401f c2ba
00000130: c8ff 4fbe 0a4e fe3d b00a 723e a300 1abb
00000140: 38ae ee3d e387 9abe 9a55 c9bd 2898 3c3e
00000150: aa33 f6bd 7010 e63c e485 febd 1044 163e
00000160: c01a fcbc 08a2 8a3d ea91 6fbe 742a 303e
00000170: 4051 603e 8085 26bc 5608 fcbd 0ca6 9b3d
00000180: 2625 9dbe eac3 21be 503b 233e e679 2bbe
00000190: 36e4 703e a144 bdbd 699f 6b3e ba57 94be
000001a0: e491 1d3e 3d5a 3c3d c463 2abd 2d2a bb3d
000001b0: cc45 3b3e 8a22 fa3d 83b7 573e 3632 4d3e
000001c0: 1f4d 4f3e 6978 24be 57c0 94be 9223 6b3e
000001d0: 7d4d d33d 287d bf3d 9ad4 c63d dcdb 7a3e
000001e0: 8b84 8f3d d60f 9bbe 67cc 663d 1069 5e3d
000001f0: 38a2 5abd 78cc 46be 3034 743d 41d3 1fbe
00000200: 9f50 55be 03c3 5f3c 40b4 683e 6784 49be
00000210: 3746 1f3c d276 f13d 681d 793e f311 a5be
00000220: d434 80bd 2916 d13d de8f 483d 009e 6ebe
00000230: e711 8bbe dc67 a1bd 40a5 813e ae73 50be
00000240: 408c 4f3e 74b5 b2be 214f ca3d c314 18be
00000250: 5fb6 e83b 7e04 37be 2738 6abc c7a7 acbd
00000260: 7a2c 903e 4a64 9ebe 2b2f 533d 7e31 7e3e
00000270: 67af 50be c64d d03d 172d 82be 404b eb3d
00000280: ee4c fb3d d8a6 8b3d a71a a83c 2bb6 253d
00000290: 7246 583e 65ef b23e fc15 13be f23c 7c3e
000002a0: 6d69 893e 6fa2 8c3e ca18 4fbe c3e2 8a3d
000002b0: 1c9f 5d3e 888e 6c3e 4836 1d3e 8a49 cdbd
000002c0: cbd7 5a3e 93f9 bd3d 21bf dcbc a519 dcbd
000002d0: 761e 403d 40ac 883e ddb6 133e 5f25 abbd
000002e0: 6911 83bc 32d1 9cbe 6f6f bcbd 8e4f 443e
000002f0: 8719 303e f8c9 dcbd 5ff2 863e c20c c3bd
00000300: 74a2 70be 00d3 2bbb 160f 0c3e 20a9 3b3c
00000310: 3aec 71be fbce 0ebe 44c1 2cbe 1814 0bbd
00000320: 78b4 8f3e b6bb 403e 4041 2ebc 6856 5cbd
00000330: f58b 003e bcd6 7e3e 8093 9cbe 8109 583e
00000340: 3ab0 e6bd f7c8 81be 6913 613e 8f1c 3a3e
00000350: 5144 243e a82c 3a3e 8985 91bd 24a5 393e
00000360: 3acc d03e 5feb 363e 76d7 793e 7503 ad3d
00000370: ab06 e23d 5720 5ebe 5f2e 113e b36b 94be
00000380: 9953 253e 58b8 97bd 070c 593e 3c3d 003e
00000390: 4249 193e e899 73bd 746d d33d c247 33be
000003a0: 8703 b2bd cbce 6c3a a821 043e 4fdc 6dbe
000003b0: 503a 81be b467 d53a 50e0 2fbc c1fd 7e3d
000003c0: a124 8cbe 4179 99be dc41 7fbd 2213 0a3e
000003d0: 09bb 833d 6ab8 f53d b3c2 3b3e 07b1 753e
000003e0: 0acd c73d bef0 3c3e e554 a2be 783e bdbd
000003f0: fd0b 7c3e 7b52 0e3e 3848 d73d adbf 07be
-0.0020754507 0.18440573 0.09938683 -0.15494448 -0.07761802 -0.10383293 0.11833212 -0.119049095
-0.009660333 -0.38977426 0.011639415 -0.17016989 0.023105392 0.029856563 0.042566326 -0.23949379
-0.15275161 -0.04028321 0.21066038 -0.29166022 -0.099324375 -0.43567303 0.12215816 0.24016997
0.41354778 0.052889694 0.0451704 0.037167117 -0.15554151 -0.078452215 0.056803424 0.1805342
0.04355577 -0.2155379 -0.007954451 -0.16130015 0.2938645 -0.21300189 -0.029597266 -0.28412583
-0.074801944 -0.13986838 0.26961067 -0.03392494 0.018046478 0.1702668 -0.10620853 -0.11533531
0.041311175 0.2749045 -0.18342605 -0.07866749 -0.054740652 -0.27223372 -0.17795828 0.16874081
0.16054693 0.081656665 0.09142244 0.058725655 0.28920513 -0.08153616 0.047532678 -0.20716457
0.030223863 0.08484128 -0.09554568 0.19956991 0.12152312 0.06023248 0.31468 0.07062865
-0.20710765 -0.22300178 0.10511872 -0.0014810339 -0.20312417 0.124172285 0.2363689 -0.0023498915
0.11654323 -0.30181798 -0.0983078 0.18417418 -0.12021573 0.02808401 -0.12427881 0.14674401
-0.030774474 0.06769186 -0.23395506 0.17203695 0.21905994 -0.010163665 -0.123062775 0.0760003
-0.30692405 -0.15797392 0.15940595 -0.1674572 0.23524556 -0.092416056 0.23010029 -0.2897318
0.15387684 0.045984495 -0.04159905 0.09138904 0.18288344 0.12213619 0.21066098 0.20038685
0.20244263 -0.16061558 -0.29052994 0.22962788 0.10317514 0.093500435 0.09708519 0.24497932
0.070077024 -0.3028552 0.056347277 0.054299414 -0.05337736 -0.19413936 0.059620082 -0.1560793
-0.20831536 0.013657334 0.2272501 -0.19679414 0.00972133 0.11790241 0.24327624 -0.32240257
-0.06260076 0.10209305 0.048965327 -0.2330246 -0.27162096 -0.07881138 0.25321388 -0.20356628
0.20268345 -0.34904063 0.09878374 -0.1485167 0.0071018185 -0.17872807 -0.014295614 -0.084304385
0.28158933 -0.3093589 0.051558655 0.24823567 -0.2037941 0.10171084 -0.25425026 0.11488962
0.122705325 0.06818932 0.020520521 0.040456932 0.21120623 0.3494827 -0.14363855 0.24632624
0.26838246 0.27467677 -0.202243 0.067815326 0.21642727 0.23101246 0.15352738 -0.10023792
0.21371381 0.09276118 -0.026946606 -0.10747079 0.04690405 0.26693916 0.14425226 -0.08356737
-0.015999513 -0.30628353 -0.09200942 0.19170973 0.17197238 -0.1078071 0.2635679 -0.09523918
-0.23499471 -0.0026218295 0.1367763 0.011453897 -0.2362527 -0.13946144 -0.168706 -0.03395471
0.28067374 0.18821606 -0.010635674 -0.05379334 0.1255339 0.24886602 -0.30581284 0.21097375
-0.11264081 -0.25348637 0.2198006 0.18174957 0.16041686 0.18181098 -0.07105548 0.18129402
0.40780813 0.17863224 0.24398598 0.08447925 0.11036428 -0.21692024 0.14177845 -0.28988418
0.16145171 -0.07408208 0.21195994 0.12523359 0.14969352 -0.05947295 0.10323611 -0.17507842
-0.08692079 0.00090335 0.12903464 -0.23228572 -0.252398 0.0016281516 -0.010734633 0.062253717
-0.27371696 -0.29975322 -0.062318668 0.13483861 0.064321585 0.11998065 0.1833599 0.23993312
0.09755905 0.18451211 -0.31705394 -0.092404306 0.24613948 0.13898651 0.105118215 -0.13256712

fc1.bias f4 [64]
00000000: c9ca b03c 7d5f 123e 0eb2 89bd 019b 73be
00000010: b614 ddbd 60ce 5a3e 1fde 94bb c455 56be
00000020: c2b4 0dbe c4a2 84be fda6 063e 9630 3bbd
00000030: b378 493e 3765 35be 32b0 81be d3b5 a9be
00000040: fc5e 253e 93eb 95bc 2357 b2bd e1e0 7a3e
00000050: 90d7 cf3a 2ceb 063d f5a8 10be f8a0 9c3d
00000060: 5c05 3abe 884a ea3d bfc9 3dbe e81e 8cbe
00000070: 9ead 4fbe addb 503d 5aa9 923e e7b3 9f3d
00000080: 0014 e03d f530 9f3e 597f e0bd e6db 0dbe
00000090: 8f1d 05be e7c7 8abe 2025 743e 39e4 0c3e
000000a0: 08ef b93d e992 4e3e 9ba4 953e 99fe a4bc
000000b0: 49af 333e 3a9b 5abe 86a6 253e 2979 4bbe
000000c0: 8fbe 15be 08a5 65bd c57c 55be 209a 173e
000000d0: eb91 7d3e dd02 9c3e f884 4cbe 7494 b6bc
000000e0: cfbd 033e d7dc 7fbd 04c6 353e ed2b 54be
000000f0: 36e5 75be 4495 64be 36b8 68be 30b5 7e3d
0.02158107 0.14294238 -0.06723414 -0.23789598 -0.10794966 0.21367788 -0.0045430805 -0.20931154
-0.13838485 -0.2590543 0.13149638 -0.045700632 0.1967495 -0.17714392 -0.2532974 -0.33146533
0.16149515 -0.018300807 -0.08708026 0.24499847 0.0015857089 0.03293912 -0.14126952 0.0764789
-0.18166107 0.11439997 -0.18533991 -0.2736733 -0.20281073 0.05099075 0.2864483 0.077979855
0.10941315 0.3109204 -0.1096179 -0.13853416 -0.12999557 -0.27105638 0.23842287 0.13758935
0.09078795 0.2017323 0.29227147 -0.020140933 0.17547335 -0.21348277 0.16176805 -0.19870438
-0.14623474 -0.05606559 -0.20848377 0.14804888 0.24762695 0.30470935 -0.19972599 -0.022287585
0.12865375 -0.06246647 0.17751318 -0.20719881 -0.24013218 -0.22322565 -0.22726521 0.062184513

fc2.weight f4 [64, 64]
00000000: d3ed 19be 9194 943d 6fad 8f3c e1e2 813d
00000010: f2be c83d 157b a7bc 12d2 bcbd 5a8f cd3d
00000020: 3db3 c9bd 076f d3bd 0af1 e73c ba8b 253d
00000030: 4f65 6fbd c465 183e 8b04 adbd c588 d0bc
00000040: 5017 283c 78d9 763d 1589 0abc e767 68bd
00000050: 5548 c13d d3aa 78bd 269c 9f3d 7c57 0fbd
00000060: a91b 70bd 2076 873c fb7f a0bd 495a acbd
00000070: 7335 953c 3607 9f3d 2097 843d bcf2 663d
00000080: 80ba a8bc 9eb5 933d 0c75 cfbd 6403 9cbc
00000090: 788b 503d a6e0 233d f9da 893d 456b c6bd
000000a0: 9c4b 8a3d 4fcc 9e3d 5148 993d 98d8 05be
000000b0: 7376 16be 8d17 4f3d ef43 bc3d 45e4 d03d
000000c0: 5a2c af3d 5627 6bbd 64db 63bd 9cb2 9cbd
000000d0: 14c6 b8bd 022f d53d 1991 90bd 861c a1bd
000000e0: 7018 a4bd b579 923d 6032 cdbd c9fd d73d
000000f0: 5d1c fabd a1ea 8e3d d3da 08be 2a99 c1bd
00000100: 7b2b 5f3d 2d93 b63d fa4c e1bb 2e43 73bd
00000110: ae4b a6bd a74d 90bd d585 df3d 1086 063c
00000120: af7c 263d e57e da3d 4c9b c93d d5ab a3bd
00000130: bfb6 15be bb3f 12bc 19bc e63d f0ed eebc
00000140: d0bb 4bbd 0ff5 79bd b23b 30bc 42db a9bc
00000150: fbb8 54bd 284f 4b3d 3699 7f3d c0fd 793d
00000160: 0234 cc3d 6876 1f3d e36c 223b bab2 a33d
00000170: 0944 953d 5e49 8d3d 5259 cb3d bef9 95bd
00000180: be8b f73d 3654 bb3d f643 5cbc 5017 c13d
00000190: 1054 6bbc e3a2 da3d 6903 91bd 74e3 b8bc
000001a0: 8041 503c 74dd d6b8 8278 113d a70c bdbd
000001b0: 1d23 65bd c749 193d 71e7 aabd 204f ea3d
000001c0: e455 c73d e5dc 1bbe c57c 863d 8326 883d
000001d0: 3f68 89bd 5bb8 463d d329 9a3b 4941 fa3d
000001e0: ea69 bfbd 4c9a 07bd 0011 143c d112 d83d
000001f0: de6b d9bd dd4e bcbd 3d5b 99bd 5ef6 933d
00000200: da69 7ebb 42b3 0abe 4ede 9cbc c274 35bd
00000210: 704f 5a3c 10c1 0bbe 9c03 b6bd 2038 edbb
00000220: 8520 13be 847c d0bd 2b64 7d3c 5056 cebd
00000230: 389d f4bd 01a2 00be 7453 4e3d 21f0 86bd
00000240: 2cba 763d 12bc 883b fe83 d7bd 7f9b e13b
00000250: 1207 a13c 06d0 69bb 71f2 5cbc 3073 39bc
00000260: 26d9 8bbd 4806 abbc 14c5 a13d 63cd fb3c
00000270: e0d6 6abd 300f e2bd 1e33 ff3d 24db 08bd
00000280: 3674 f1bd f291 39bd 59e1 c6bd d980 003e
00000290: 9a99 91bd 4160 3cbd d06c f1bb be3c 8d3d
000002a0: a844 61bd 8f86 a8bd 3486 0f3d c149 babd
000002b0: d0b5 0d3d 30e1 68bd b93b 8e3d 65ed df3d
000002c0: 2c9d 97bc 37a5 1abe 0569 d73d 7dee 723d
000002d0: 42a4 5f3d 79f1 dfbc 84b9 f03d 701c 0d3d
000002e0: 929a a9bd 617d 853d 945a 2bbd 29a3 febc
000002f0: 7cde 813d b9c0 b3bd 43ef 5f3c 4019 033b
00000300: 1ff7 083c 1c12 c13c 6951 593c 760b 973d
00000310: 60d4 a93d 1fde 8fbd 2179 603d 88ff 2a3d
00000320: 5ff1 73bd 324c 923d 9e4f cbbd 7a81 5d3b
00000330: a05b 06bd 28c8 09be 65bb 57bd f2a2 efbc
00000340: a26f c63d 12f1 f7bc 38ac b1bd 3e81 07bc
00000350: ee41 febc a63d f4bd e849 f4bd da87 883d
00000360: 5a35 39bd f045 21bc 8496 70bd 589c 13bd
00000370: f096 f9bd aaf6 b1bd d2d4 d23d a0e6 513d
00000380: 703c 54bc 3638 e23c b2f0 c83b 319b 46bd
00000390: 4854 a63d 14ca 913d 849f febd 4a92 993d
000003a0: 80ba 783d 864a 76bd 5877 fd3d 0061 ee3c
000003b0: c020 56bc 69ef 02bd 9b7f f1bd 122a 1abd
000003c0: 32e7 22bd 75d1 5fbd 7af2 a43c bae3 1fbe
000003d0: bce4 063d 96c2 bb3d 22e9 163c 5f7b 86bd
000003e0: 5ef7 eebd 24f0 e83d 0c5f 0a3d b5e8 e83d
000003f0: 9b27 fc3d b793 d1bd 9372 aebd 1ab2 de3d
-0.15032129 0.07254899 0.017538754 0.06342102 0.09802045 -0.020444432 -0.09219755 0.10037108
-0.0984864 -0.10323911 0.028313179 0.040416457 -0.058446225 0.1488257 -0.08448132 -0.025455842
0.010259464 0.060265988 -0.008455534 -0.056739714 0.09437624 -0.060709786 0.07793455 -0.03499554
-0.05862013 0.016535819 -0.0783691 -0.08415658 0.018213963 0.07765047 0.06474137 0.056383833
-0.020596743 0.07212375 -0.10129747 -0.019044586 0.050914258 0.040009163 0.06731219 -0.09688429
0.067527026 0.077538125 0.074844964 -0.13070905 -0.14693622 0.05055957 0.09192645 0.10199789
0.08553381 -0.05741056 -0.05562915 -0.076512545 -0.090221554 0.10409357 -0.07058925 -0.078667685
-0.080124736 0.0715212 -0.10019374 0.105464526 -0.12212441 0.06978346 -0.13364725 -0.09453042
0.054484826 0.0891479 -0.0068756314 -0.05939024 -0.081199035 -0.07046061 0.10914198 0.008210674
0.04064625 0.106687345 0.09844074 -0.07991759 -0.14620493 -0.008926327 0.112663455 -0.029166192
-0.04973966 -0.06102472 -0.01075642 -0.020734433 -0.051934224 0.049636036 0.062401973 0.06103301
0.09970857 0.03893128 0.002478414 0.07993074 0.07288367 0.06898759 0.09929146 -0.07323025
0.120872006 0.09146921 -0.0134439375 0.09428275 -0.014363304 0.106755994 -0.070807286 -0.022569396
0.012710929 -0.00010245564 0.035515316 -0.09230929 -0.05594169 0.037423875 -0.08344925 0.11440873
0.09733179 -0.15220983 0.06566767 0.066479705 -0.067093365 0.04851566 0.004704693 0.122194834
-0.093463734 -0.033106133 0.009037256 0.10550464 -0.10616277 -0.091947295 -0.074881054 0.07224725
-0.0038820417 -0.13544944 -0.019148972 -0.044300802 0.013324603 -0.13647866 -0.08887407 -0.0072393566
-0.14367874 -0.101799995 0.015465776 -0.100750566 -0.119440496 -0.125618 0.050372556 -0.0658877
0.06023614 0.0041728104 -0.105232224 0.0068849917 0.019656692 -0.003567697 -0.013485537 -0.011318967
-0.06828527 -0.020877019 0.07898918 0.030737584 -0.057333827 -0.11038053 0.12460922 -0.033412114
-0.117897436 -0.0453052 -0.097109504 0.12549151 -0.07109375 -0.045990232 -0.007367708 0.06896351
-0.054997116 -0.0822879 0.035040095 -0.09096099 0.034597218 -0.05685538 0.06944985 0.10933951
-0.018507563 -0.15102087 0.10518078 0.05930947 0.054600008 -0.027336823 0.11754134 0.03445095
-0.08281435 0.06518055 -0.04183443 -0.03108366 0.06341264 -0.08776993 0.013667884 0.0020004064
0.0083596995 0.023568206 0.013264039 0.07375233 0.082924604 -0.07024788 0.054803018 0.0417476
-0.05955636 0.07143439 -0.09927295 0.0033799098 -0.032802224 -0.1345526 -0.052668948 -0.029252503
0.09689261 -0.030266318 -0.08675426 -0.00827056 -0.031037297 -0.11925821 -0.11928159 0.06666537
-0.045216896 -0.009843335 -0.058737293 -0.036037773 -0.12186992 -0.086896256 0.102944985 0.05124533
-0.012953863 0.027614694 0.0061322087 -0.048487846 0.08121544 0.071186215 -0.12432769 0.074986055
0.060724735 -0.060129665 0.12376279 0.029098988 -0.013069332 -0.0319666 -0.11791917 -0.037637778
-0.039771266 -0.054643113 0.020135153 -0.15614215 0.03293298 0.09167974 0.009210857 -0.065665
-0.11668275 0.11373928 0.03378205 0.1137251 0.12312242 -0.102332525 -0.08517947 0.10873814

fc2.bias f4 [64]
00000000: 9d8d 1f3d b121 d13c 58dd 353c 2acd 3ebd
00000010: 28da 353d e240 2fbd 34c7 c63d c7ba 753d
00000020: f5ac 823d 25e8 71bd 65b0 74bd 8bb5 753d
00000030: db20 c13c 6e76 a6bd 995c 683d eff2 c23d
00000040: f044 52bc c36c b93d 7a3c 363d 6bc9 8bbd
00000050: ca04 bdbd 7172 d3bd 1e1b 9b3d eac1 7d3d
00000060: 264a f9bd 856a 453d 2c81 f8bc 7a75 98bc
00000070: 23a4 0bbe 9a0c 6abd 09c3 593c d580 d8bd
00000080: 5dad 0fbd 2770 e0ba 035b 6e3d 16a4 cd3d
00000090: 7f92 81bc 8962 033e d993 693d 3f5d e43c
000000a0: c84b 1ebd 3bef 593d b402 b3bd 3b08 703c
000000b0: 252d e33d 2312 c8bd d17c b83d 7778 0dbe
000000c0: d486 b3bc 4e02 26bd 7253 5e3c 49d3 113e
000000d0: 4316 54bd f1ca 69bd d892 8abd 6d84 00be
000000e0: 88dc 3d3e d7ed f3bd a9e3 7f3d 5652 ec3d
000000f0: f5d3 5a3d 4894 7b3d b2ca 3c3e 8341 ea3d
0.038953412 0.02552876 0.011100136 -0.04658238 0.044397503 -0.042786486 0.09705964 0.059992578
0.06380645 -0.05905928 -0.059738535 0.059987586 0.023575237 -0.081280574 0.056728933 0.09518992
-0.012833819 0.09053948 0.04449127 -0.06825527 -0.09229429 -0.10324562 0.075735316 0.06195251
-0.12172346 0.048197288 -0.030335031 -0.018610705 -0.13636832 -0.057140924 0.013291129 -0.10571448
-0.03507744 -0.0017123268 0.058192264 0.100410625 -0.015816925 0.12830557 0.057025764 0.027876494
-0.03864649 0.053206664 -0.0874075 0.0146504 0.11092595 -0.09769084 0.09008182 -0.13815485
-0.021914877 -0.04052954 0.0135697 0.14240755 -0.051779043 -0.057078306 -0.067662895 -0.12550516
0.18541157 -0.11910599 0.062472973 0.11539142 0.053424794 0.06142071 0.18436697 0.114382766

fc3.weight f4 [3, 64]
00000000: 2449 1c3d d5db 13bd 228a acbb d1c9 f53b
00000010: c8de 2a3c 80e1 0cbd a3eb d6bd 96ae 9dbd
00000020: 8106 663d 83ac 1b3a 4205 dc3c ec98 d5bd
00000030: 0c0d cf3d ff72 973c d2bc 76bd 3124 c13c
00000040: c8e8 14bd 2688 b2bd 96b8 06bd 39d9 8abd
00000050: a92f cb3d 30fe 14bd 1a7b 4e3c 651f 8dbd
00000060: a138 9dbd 86bc 813b 4b60 afbd 5561 b03d
00000070: 7699 60bd 8d2f d8bc 99c4 62bd 0865 03be
00000080: 463e 0ebe 9678 513d 3881 43bd d370 58bd
00000090: a3c3 02bd fed3 c2bd 8ecc 11be 0a98 06bd
000000a0: ac8e b73d e9d3 5c3b 5172 203d d421 d7bd
000000b0: ab4e 873d 6906 eabd 5452 c3ba 4ff6 053d
000000c0: 8645 053d 8340 05bd d879 853d 53f5 01be
000000d0: b2a7 d3bd fd7e 82bd 9007 e13b 35f2 d2bd
000000e0: a13f 7dbc 2bdb 03be 7c94 f2bc c4fd 783d
000000f0: 9d7d 71bd a34f 09bd eb6c c8bd 94eb ce3d
00000100: 8ea8 dd3c a922 993d fb98 1f3d 9b01 f43d
00000110: 5d63 b83d 5316 b8bd 1feb 0fbe 8cab 8dbd
00000120: 68da 99bd 627e fa3d 8912 f6bd fb7a 8abd
00000130: f5b4 633d 551f afbd fbdb a93d e0f9 963d
00000140: 28d6 6c3d 4918 9a3d fd10 6cbd e2de f6bd
00000150: 4352 823d 126b 28be 9fa4 623c 116d 21bd
00000160: 9d5b f5bd 2923 033e ea7f 96bd 74a3 863d
00000170: 3e4f cbbd 30b1 853d 4998 de3d 55e5 4abd
00000180: 417f 9a3d 4285 7a3a aed7 63bd 778e 553c
00000190: fe32 cabd 85d5 b83c d142 f03d 4c58 dd3d
000001a0: 70c3 b3bc 2d02 fcbc 8213 07be b1cc c6bd
000001b0: 0cc8 e33d be46 973d 90f3 d03d 2f05 04be
000001c0: 03a9 38bb 9135 4cbd 0594 f8bd cede ee3d
000001d0: b9bf ee3c 3376 f8bd 80c5 21be a40e 83bd
000001e0: 9bf8 2c3e dfef 21be 129b f23d 9c65 d63d
000001f0: a60c 2cbe 2fd3 a9bd 3c63 fe3c a8a0 983d
00000200: 0938 a03d 3a6f b1bd bee5 a73d a891 e7bc
00000210: 35e0 403d 3e16 80bd 7101 aa3d edae a23d
00000220: 91ba 2bbc dcb2 de3d f8ff 303d 7b40 f93b
00000230: d319 7f3c 137f e8bd 5e25 babc 83a1 1abd
00000240: 56af d13d b142 8dbd e93c eabd 89bb 11be
00000250: a850 a83d 9edf 01be aaa5 3e3d 4427 1bbe
00000260: 85c4 76bc 13d8 87bc ca46 6bbd 08e2 cc3d
00000270: d51d 54bd fcdd 38bd 356f 98bb 05bb 8ebd
00000280: 3635 bbbd b551 543d 4a52 05be 917c b7bd
00000290: 444b ca3d b44b 4d3d f9bc 91bb 5248 66bd
000002a0: 1988 373d 109f e2bd 4dcd 7d3d 0396 4ebd
000002b0: 2e2f 56bd 32e4 bbbd 0ebf 0cbd 062e c53c
000002c0: 1fd4 13be 6751 3ebd 603f 75bc 5531 733d
000002d0: d003 10bd 32c0 13be dc29 0abe 6d57 b1bd
000002e0: bf42 0c3e 8861 dabd 9752 27bc a889 a53d
000002f0: c46b f7bc 7738 d03d dc56 b23d 0c3a a5bb
0.03815569 -0.03609832 -0.00526549 0.007500865 0.010429092 -0.03439474 -0.10494163 -0.07699315
0.056158546 0.0005938487 0.026857976 -0.10429558 0.1010991 0.018487452 -0.060238667 0.023576828
-0.03635481 -0.087173745 -0.03289088 -0.06779713 0.099212 -0.036375225 0.012602592 -0.06890754
-0.07676817 0.0039592413 -0.08563288 0.086123146 -0.05483385 -0.026389861 -0.05536327 -0.12831509
-0.13890943 0.05114039 -0.047730654 -0.052841973 -0.031924855 -0.095130906 -0.14238188 -0.03285984
0.089627594 0.0033695644 0.03917152 -0.10504499 0.066068016 -0.11427004 -0.0014901855 0.0327056
0.032537006 -0.032532226 0.065173805 -0.1269124 -0.1033472 -0.06371877 0.0068673566 -0.103001036
-0.015457065 -0.12876575 -0.029611818 0.060788885 -0.058957685 -0.033523213 -0.097863995 0.10103527
0.027057912 0.07477314 0.038964253 0.11914369 0.09003327 -0.08988633 -0.14054535 -0.069174856
-0.07512361 0.12231137 -0.12015254 -0.06761738 0.055592496 -0.08550898 0.08293911 0.073718786
0.057821423 0.07524163 -0.05763339 -0.1205423 0.063633464 -0.16447094 0.013833194 -0.039410654
-0.119803645 0.12806381 -0.073486164 0.06574145 -0.099272236 0.065279365 0.1086889 -0.049535114
0.07543803 0.00095566 -0.05562561 0.013034455 -0.09873007 0.022562752 0.11731494 0.10807857
-0.021943778 -0.030762756 -0.13191035 -0.097070105 0.1112214 0.0738654 0.10202706 -0.12892602
-0.002817691 -0.049855772 -0.121376075 0.1166359 0.029144155 -0.1213192 -0.15797997 -0.06399277
0.1689171 -0.1581416 0.118459836 0.10468599 -0.168017 -0.08292233 0.031053178 0.07452518
0.07823188 -0.08663793 0.08198117 -0.028267696 0.04708882 -0.06254242 0.08301056 0.07943521
-0.010481493 0.108739585 0.04321286 0.0076065636 0.015570122 -0.113523625 -0.022722896 -0.037751686
0.10238521 -0.06897486 -0.11437399 -0.14231695 0.08218509 -0.1268296 0.04654471 -0.15151697
-0.015061502 -0.016582524 -0.057440557 0.100040495 -0.051786263 -0.045133576 -0.004651929 -0.06969265
-0.091410086 0.051835734 -0.13019672 -0.08959306 0.09877637 0.050121024 -0.004447576 -0.056221314
0.044807527 -0.11065495 0.06196337 -0.05043603 -0.052291088 -0.09174384 -0.03436189 0.024069797
-0.14436387 -0.04646435 -0.014968723 0.05937322 -0.035159886 -0.14428785 -0.1349253 -0.08659253
0.13697337 -0.10663134 -0.010212562 0.080828965 -0.030202754 0.1016702 0.08707973 -0.00504232

fc3.bias f4 [3]
00000000: 3692 c6bd 8f67 023d 7dcb c539
-0.09695856 0.031837042 0.0003772638

fc1.weight f4 [64, 12]
00000000: a0d6 b23c 68f3 723e 303f 6d3d a644 1c3e
00000010: 5314 3ebe 0e3f 393e 96db 1bbe 20ae febc
00000020: d0a1 0dbe 5465 f93d f8c3 743e ec6b 8cbd
00000030: 105e dabc 14f6 313e dc98 223e 1081 36bd
00000040: 5e9a c6bd 41f5 88be 2073 61be 7674 ccbd
00000050: e24a 2cbe f08c 15bd 39c6 72be 18ea 2b3e
00000060: 5638 57be 8040 1d3d 768b 1a3e 4423 abbd
00000070: 9c5b 5c3e 1b9f 90be 2be4 08be 5dbc 8bbe
00000080: 4004 15bd 00a8 1f3b e018 7dbc 80c6 8fbe
00000090: 46c5 92bd ab7f 12be 9932 753e a4f8 79be
000000a0: 3f85 7fbd 2665 8abe 4869 813d 742a 213e
000000b0: 47cd 86be 1efe 9fbe 94c7 813e 0d61 4b3e
000000c0: 22b2 183c c2ad 37be d379 db3b 2c22 503e
000000d0: f5c9 d7bd d18b 2ebe 6949 893e 1996 fc3d
000000e0: a14d 8c3e a961 873d e135 b7bd 1426 81be
000000f0: b534 8bbe a0ee 8a3c 379e 08be 8944 683e
00000100: d978 b93d 40ba da3d 5203 54be 18c6 dd3d
00000110: f9f1 1abd e9bf e5be 22c6 193e afbf 8f3d
00000120: 082e 8f3e 6c08 f8bd c643 383e 2cb0 233e
00000130: 0032 173b 6c07 a5bd 3e56 fcbd 73fc 88be
00000140: c80b 4d3d 3cc1 783e 1442 7f3e 0a13 5ebe
00000150: b7e1 8dbe 8aa1 d03d 0594 33be b659 5a3e
00000160: 6604 90be c174 c7bd e12b ca3d 210d 85bd
00000170: c9a2 323e 9a9a 9c3d 7769 803e 70fd 9b3b
00000180: 69f4 a23e 165f b1bd a1ae 76be dc1f 7c3e
00000190: 2a1a 61be e25e 013e d5aa 913d d09e 73be
000001a0: d063 69be 7a35 ef3e e243 c2be 8768 7a3d
000001b0: 0622 853e d763 503d 5aea 8f3e d5cd 0b3e
000001c0: 2461 473e 86f2 823e 6885 e73d 39af 5bbc
000001d0: 5ffb 543e 78f8 0dbe 45ef 85be 60cb 5f3e
000001e0: 1e72 52be 5b67 4f3e f33a 503d d46d 32bd
000001f0: 48c7 42be 5216 2d3e f89e 0c3e 91aa bebd
00000200: c840 1c3e 7111 f6be 9bd0 6a3e 56c5 50bc
00000210: 6d08 5c3e e657 77be 09f2 ea3c 27a0 a8bb
00000220: f09c b2bd 1bb3 82be ca73 113e 268f d73d
00000230: de8f 92bd ee8f ca3e e9b7 a6be b647 2cbe
00000240: f8cb f03d 1574 6fbe b87b 603e 9391 58be
00000250: 6859 a83d e0e2 623d 2a79 34be 7072 26bd
00000260: 80d8 dc3c 9c1e 673e 8a4e d1bd c8ad 333d
00000270: dee4 d53d 1760 d3bd 66e7 f7bd 5463 5bbe
00000280: 3971 ea3d 2158 013d 8774 2dbe 4ba2 653e
00000290: 473c dd3c 1eda 04be 171d 9dbe e9d2 15bd
000002a0: 84e6 3bbe 6717 d13d 5597 00be b0b5 6dbd
000002b0: c8cd 173e beea 8a3e 10f5 f5bd 7b09 803d
000002c0: ac38 c03d 6c53 01bf 348a f83d 1d86 1a3e
000002d0: 77e3 4e3d a768 9c3d f7a4 873e cf59 2dbe
000002e0: 2006 8ebe bafd a1bd bc3a 873e c9c4 62bd
000002f0: 1bef 5f3d 252f d3be 25b7 0ebe 918f 513e
00000300: eada 413e e387 00be 7c53 fe3d 4cbe 8d3e
00000310: b042 46be 7a1b 16be cb69 1ebe a206 d5bd
00000320: d0ba 533d 77ce 70be c299 833e fe76 273e
00000330: b474 8f3d 1ab2 8bbe 3064 83bc 4413 76bd
00000340: 68e7 1e3e c2d5 dabd 4c22 4abe 6244 e9bd
00000350: 5019 383d d400 c9bd e8e1 11bd 209b c23c
00000360: 704c 85bc f000 cb3d 9a69 223e daf6 3dbe
00000370: 6478 363e e075 403e bfa8 6bbe 481e 543d
00000380: 2263 0cbe 1880 6d3e e4e1 02be 2827 bc3d
00000390: 2069 84bc 4898 90be 16fb 8b3e 98db 3ebd
000003a0: c018 2fbe 786d 2a3e 0ab5 393e 7cb3 37bd
000003b0: 9863 323e c6b7 5fbe 5671 f4bd de6c 64be
000003c0: 4e9a cf3d fe46 623e ef37 2fbe 725e 8a3e
000003d0: 4c00 45bd dc84 95be a1ca 3fbe 93ea 823e
000003e0: aef0 293e 01ee 38bc 212e b0be 0c05 31be
000003f0: 7466 aa3d 30ea c03d 6c73 d33d 3f82 63be
0.021830857 0.23725665 0.05792159 0.15260562 -0.1856244 0.1809046 -0.15220484 -0.031088889
-0.13831258 0.1217753 0.23902881 -0.06856522 -0.02665618 0.17379028 0.15878624 -0.044556677
-0.09697412 -0.26749614 -0.22016573 -0.09983151 -0.1682544 -0.03651136 -0.23708428 0.16788518
-0.21017584 0.03839159 0.15092263 -0.08356336 0.21519321 -0.28246388 -0.13368289 -0.27292147
-0.036381006 0.002436161 -0.015447825 -0.2808113 -0.07166533 -0.14306514 0.23945083 -0.24411255
-0.062382933 -0.27030295 0.06318909 0.15738851 -0.2632849 -0.31248564 0.2534758 0.1986124
0.009319814 -0.17937377 0.006697872 0.20325536 -0.10536567 -0.17045523 0.2681382 0.12333316
0.27402976 0.06610424 -0.089458235 -0.25224364 -0.2718865 0.016959488 -0.13341604 0.22682394
0.09056253 0.106800556 -0.20704392 0.10828799 -0.03782842 -0.44872978 0.15016988 0.070189826
0.27964807 -0.12110981 0.17994604 0.15985173 0.0023070574 -0.08058056 -0.12321137 -0.26755103
0.050060064 0.24292463 0.2492755 -0.2168695 -0.2771127 0.10187061 -0.17536934 0.21323285
-0.28128356 -0.09739066 0.098716505 -0.06496645 0.1744491 0.076466754 0.25080463 0.0047604367
0.31827095 -0.08660714 -0.24090053 0.24621528 -0.21982637 0.12633851 0.07112662 -0.23791051
-0.22791982 0.46720487 -0.37942415 0.06113484 0.2600252 0.050876465 0.28108484 0.13652737
0.1947065 0.25575656 0.11304742 -0.013408476 0.20799015 -0.13864315 -0.2615911 0.21854925
-0.20551345 0.2025427 0.05083747 -0.04356177 -0.19021332 0.16903046 0.13732517 -0.09309877
0.15259087 -0.48060182 0.22931139 -0.012742361 0.21487589 -0.24154624 0.028679864 -0.005146045
-0.0872134 -0.25527272 0.14204326 0.1052535 -0.07156347 0.39562935 -0.32562187 -0.1682423
0.11757654 -0.23384126 0.21922195 -0.21149282 0.08220178 0.055392146 -0.17624345 -0.04063648
0.026958704 0.2257027 -0.10220058 0.043866903 0.104440436 -0.10321062 -0.121046826 -0.2142461
0.11447377 0.031578187 -0.16938983 0.22425191 0.027006282 -0.1297383 -0.30686256 -0.036578093
-0.18349653 0.10209542 -0.12557729 -0.0580346 0.14824593 0.2713222 -0.120096326 0.06251808
0.09385809 -0.50517917 0.12135735 0.15090223 0.050509896 0.07637148 0.26493046 -0.1692879
-0.27739048 -0.079097226 0.26411998 -0.05536345 0.054671388 -0.41246906 -0.13937052 0.20464922
0.18931165 -0.12551837 0.12418267 0.27684247 -0.19361377 -0.14658919 -0.15470044 -0.10401656
0.05169183 -0.2351626 0.25703245 0.16353986 0.07004681 -0.27284318 -0.016038984 -0.060076967
0.15517962 -0.10685302 -0.19739646 -0.11389996 0.044946015 -0.09814611 -0.03561583 0.02375561
-0.0162718 0.09912288 0.15860596 -0.18551198 0.17819363 0.18794966 -0.2301359 0.05178669
-0.13709691 0.23193395 -0.12781483 0.09187156 -0.016163409 -0.2824118 0.2734 -0.04659614
-0.17099285 0.16643322 0.18135467 -0.044848904 0.17420805 -0.21847448 -0.119356796 -0.22307155
0.10136853 0.22097394 -0.1711118 0.2702518 -0.048095986 -0.29202926 -0.1872964 0.2556959
0.16595718 -0.011287213 -0.34410194 -0.17287081 0.08320323 0.09419668 0.10324749 -0.22217654

fc1.bias f4 [64]
00000000: 2a67 08be 4090 a53d 0a93 5abe b424 6f3e
00000010: 1161 ef3c f101 423e 54d3 6ebe 24fa fa3d
00000020: de16 913d b45f dbbc 8d66 823c 9a06 4f3c
00000030: 20e2 f13d 08f2 0f3e 6588 793d 4804 503c
00000040: fca4 bebd 1d9d 71be 6871 69be aa28 343e
00000050: 91c3 91be c8d5 153e e744 79be d44b 4a3e
00000060: 3c99 8c3c 70b9 97bd 956c 79bb 2956 16be
00000070: 301f d13d 9457 f43d ad05 823e 390f 21be
00000080: 9c13 34be 507d 373e bb96 433d 42c8 253e
00000090: 3eca 963c 3431 b33d 4ce2 8ebd 1d76 163e
000000a0: e20f b33d 3496 09be c22c 87be fc6f 5dbe
000000b0: 0cda f63d d2ba 983e ce25 823d 054d 59be
000000c0: 7cfb d8bd 3e18 093e 39d4 923d 23ad 6d3e
000000d0: 5327 233d df31 08be 0ffd b0bd bea4 963c
000000e0: a40c 26bd 9e57 97bc c8df 153e e059 cc3d
000000f0: b45c 02be 5b23 38bd 9c22 043e 2e4b 3bbd
-0.13320604 0.08084154 -0.21345153 0.23353845 0.02922109 0.18946053 -0.23322803 0.12254742
0.0708444 -0.026779033 0.01591804 0.012635851 0.11810708 0.14057171 0.06092109 0.012696333
-0.09308812 -0.2359509 -0.22797167 0.17593637 -0.28469518 0.14632332 -0.2434269 0.19755489
0.017162912 -0.07408416 -0.0038059105 -0.14681305 0.10211027 0.11930767 0.25394955 -0.15728463
-0.17585605 0.17918897 0.04775117 0.16189674 0.018406983 0.08749619 -0.069767565 0.14693494
0.08743264 -0.13436204 -0.26401335 -0.2162475 0.12053308 0.29830033 0.06354867 -0.21220787
-0.10594842 0.13388154 0.071693845 0.23210578 0.039832424 -0.13300274 -0.08642017 0.018389102
-0.0405394 -0.018474396 0.14636147 0.0997808 -0.12730676 -0.044955593 0.12903827 -0.045725994

fc2.weight f4 [64, 64]
00000000: b68f e03d 580f fabc 0037 b23d 7113 1abe
00000010: 10f9 8cbd 0311 20be 825f abbd 996e c33d
00000020: a2d2 c7bd 7b99 d5bd 5987 0ebe eaa5 e83c
00000030: e6b3 a23d 062d fcbd e300 90bd 9122 483d
00000040: c051 47bb 085e 00bd 36f9 e4bd b827 7c3d
00000050: 4f7f 9ebd a0da d7bd 3f22 7f3d 7078 cc3d
00000060: 608e adbb 1e03 d83d 3668 043d c0bb 4d3c
00000070: e03c 013c 3b3c dbbd 96a5 cbbd e156 583d
00000080: 5f1f d9bb fc6f 4f3d a210 05be 70c2 963d
00000090: bf3d fcbd 702e 7c3c ae24 ef3d 06a1 9dbc
000000a0: 3377 cb3c 3d8a 753d 57f5 7e3d 4c9f f6bd
000000b0: 928c 933c 22b6 6b3d 1b47 35bc d65f 13bd
000000c0: 5fb8 b9bd 1a6a 903c 5b9b b13d 5f15 2b3d
000000d0: 951f bb3d 22f4 863d e109 bcbd 2d56 223d
000000e0: 71f1 713d 1c7b c0bb e37f f0ba 6ca0 e4bc
000000f0: cbea c4bd 911c bd3c b514 a43b a7ab b03d
00000100: da83 bfbd 2cbd 6bbd 60c3 f2bc 98d0 2a3b
00000110: c47d 77bd 7648 70b9 1ea4 b23d 04a2 b2bc
00000120: 3b4b 223d 7dc8 bfbd 01ed 103e 859e 9abd
00000130: b837 f03c f32d eabd 6b68 16bc a9ca 31bc
00000140: 9a6f 91bd 442d 3f3d 5804 e33d 6819 fcbc
00000150: 82fc 713b e413 0fbd e2ab 2b3c 7aff 843d
00000160: bb11 6d3d 39b8 6fbc 2800 9e3d 3267 f0bd
00000170: 402c 863b 4e94 abbd 41cd 17be 78c9 f93d
00000180: 9831 923d 2402 aa3c 2634 313d 4840 2fbd
00000190: fde2 9e3d 80f5 e2bd 9458 883d d2ae f1bd
000001a0: 994c 3dbd a010 07bd 2dc3 123c be9a 2cbd
000001b0: 464c dd3d d4f5 95ba 135f 00be 7534 153e
000001c0: 789a 543d f4cf 3abd 497e 79bd 17f8 933d
000001d0: 73a1 9abc ff6b 1fbe adee e6bd 3144 a0bc
000001e0: dc79 8cbc b67e 573c 7ef0 b43c 5176 c53c
000001f0: 9693 b23d 8661 423d febf abbc 6809 ad3d
00000200: e84f 68bd 9638 84bd 3a9a df3d 62eb 243c
00000210: eb50 9a3d fbae a03c c09b e23d 0fc2 693c
00000220: a4e1 38bb 4b4d f1bd 1351 2bbd 100a 81bc
00000230: d8b2 b4bc 1807 11be b671 933d d82e 8fbd
00000240: 8090 0b3d 00f2 d839 a051 d73b a875 343d
00000250: 567a 01be 2cd2 97bd 676a cf3d 0c6a 8d3d
00000260: f3f5 80bc be14 08bc 4838 1cbe 02a7 a73d
00000270: a02b 9cbb 5ac8 89bd acd8 bebd 73d1 573b
00000280: 1d23 afbd 9dcb 163d 5002 0ebd 38f5 ecbc
00000290: 4c3a a2bd 20b3 bfbc eedd d2bd 1b37 873d
000002a0: d1be c1bc 6a2b 66bc 7990 11be d54b de3a
000002b0: 027c aebc 9aab d8bd 5894 c0bd dcd5 0d3d
000002c0: 0cf1 183d e6cd e93b 298d 9c3d 21c5 813d
000002d0: 7a28 edba e5fb c83d 54a9 533d efe7 df3d
000002e0: 29e1 4ebb 0944 d93b cdfd d53d 5caf cfbc
000002f0: 8090 183d b3a9 c3bc 478b 003d c061 6dbc
00000300: 88b3 f5bd 80b4 33bb 8064 daba 7ee6 b33d
00000310: 3095 1d3d ac09 9a3d 54e2 86bd 930a e13d
00000320: a375 92bd 8543 28bc 15a9 8f3d 032a f93c
00000330: 107e a23d 167e 0bbd abbe 0b3e 07f0 113b
00000340: 10c8 a73d a86e 3bbd 388c ad3c eed1 c73d
00000350: b3d8 d83c 4c4e 05bd 8f94 cfbb 4897 a93c
00000360: b909 52bd 9cfd a93d 375a a4bc f833 2ebd
00000370: 7001 eebd 146c 933d 16a6 ccbb 42e2 2a3e
00000380: ef16 50bc 6c85 79bc 4609 033e 68cc 4bbd
00000390: ab77 01be 2482 ed3d 6015 e5bb 99ad 8cbd
000003a0: a98d b43d db9a 1c3b e21b 92bd 6e40 863d
000003b0: 5fb9 bcbd abd1 603d 61f0 babd c129 e0bd
000003c0: 2441 9b3d ebe4 03bb ab06 fcbd 75f2 043e
000003d0: 1938 86bd e30b 9d3c 852e 9fbd f15c abbd
000003e0: 9785 0cbe a797 6dbd 6d48 d73d fb60 d8bd
000003f0: 9f96 073e 9ff3 3a3d ba74 a63b 7e04 d13d
0.10964911 -0.030524895 0.08701897 -0.15046479 -0.068834424 -0.1563149 -0.08367826 0.09542579
-0.09756972 -0.10429665 -0.13918819 0.028399426 0.07944469 -0.12313275 -0.07031419 0.04886109
-0.0030413717 -0.031339675 -0.11180346 0.061561316 -0.07739126 -0.10539746 0.06228852 0.09983909
-0.0052965134 0.105474696 0.032325946 0.01255697 0.007888049 -0.107048474 -0.099436924 0.05281723
-0.006626054 0.050643906 -0.12994626 0.07361305 -0.12316465 0.015391931 0.11676918 -0.019241821
0.024837112 0.059946287 0.062245693 -0.12042102 0.018011365 0.057546742 -0.011064316 -0.03598007
-0.09068369 0.017628718 0.0867221 0.041768428 0.09136883 0.065895334 -0.09181572 0.039632965
0.059068147 -0.005874051 -0.001834866 -0.027908526 -0.09615096 0.02308491 0.0050073513 0.0862649
-0.093513206 -0.057553455 -0.029634178 0.0026064273 -0.060422674 -0.00022915177 0.08722709 -0.02180577
0.039622527 -0.09364412 0.1415291 -0.075497665 0.029323444 -0.11434545 -0.009180169 -0.010851541
-0.071013644 0.046674028 0.11084813 -0.030773833 0.0036924188 -0.03493108 0.010477992 0.06494041
0.057878237 -0.014631324 0.077148736 -0.11738433 0.0040946305 -0.08377896 -0.14824392 0.1219663
0.071383655 0.020752974 0.043262623 -0.042785913 0.07758138 -0.11081982 0.0665752 -0.118009225
-0.046215627 -0.03297484 0.008957666 -0.04213976 0.10805564 -0.001144106 -0.12536268 0.14570792
0.051905125 -0.045608476 -0.06091145 0.07225054 -0.018875813 -0.15568541 -0.112759925 -0.019563766
-0.01714795 0.013152769 0.022087332 0.02410427 0.08719556 0.047456287 -0.020965572 0.0844906
-0.05671683 -0.064561054 0.10918088 0.010065885 0.07534965 0.019614687 0.11064863 0.014267459
-0.0028210664 -0.117823206 -0.041825365 -0.015751868 -0.022057936 -0.14162862 0.07199423 -0.069913566
0.034073353 0.00041379035 0.0065710098 0.04405752 -0.12644324 -0.07413134 0.101277165 0.069049925
-0.015742278 -0.008305727 -0.15255845 0.08186151 -0.0047659427 -0.06727667 -0.09318671 0.0032931238
-0.08551619 0.036815275 -0.034670174 -0.028925523 -0.079212755 -0.023400843 -0.10296236 0.066023074
-0.023650559 -0.014048437 -0.14215268 0.0016959856 -0.021299366 -0.105796054 -0.09403294 0.03462778
0.037339255 0.0071351407 0.07644112 0.063364275 -0.0018093728 0.0981367 0.051675156 0.1093291
-0.0031567311 0.006630425 0.10448799 -0.025352173 0.03724718 -0.02388463 0.031382825 -0.014488637
-0.119971335 -0.0027420819 -0.0016662031 0.08784197 0.038472354 0.07521376 -0.065861374 0.10988345
-0.07151344 -0.010270004 0.07014672 0.03041554 0.07934201 -0.03405579 0.13646953 0.0022268312
0.08192456 -0.045759827 0.021185026 0.09756838 0.026470518 -0.032545373 -0.0063348482 0.02070202
-0.051278803 0.08300325 -0.020062549 -0.04253003 -0.11621368 0.07198349 -0.006245385 0.16687873
-0.01270078 -0.015229564 0.12796506 -0.049755484 -0.12643306 0.11597088 -0.0069910735 -0.068690486
0.08816082 0.0023896012 -0.071342245 0.06555258 -0.09215044 0.054887455 -0.0912788 -0.10945464
0.07580784 -0.002012546 -0.12305959 0.12983115 -0.065536685 0.019170707 -0.07772545 -0.083673365
-0.13722835 -0.058005955 0.10511861 -0.105653726 0.13241051 0.04564249 0.005079833 0.10205935

fc2.bias f4 [64]
00000000: 85e9 513d f9a1 493d 7487 04be 2c0b d1bd
00000010: c182 c4bc 83eb c63c c76c ce3d 6e2f 803d
00000020: 3fc7 c33c ca46 a4bd 12bd e3bd aae1 f8bc
00000030: 0877 ba3d dbd6 b2bc ff7b 36bd 4e48 85ba
00000040: 0617 ab3d f0ba d1bd bba7 d3bc d241 9bbc
00000050: fcac 023e aff1 9fbc 86ec 9bbd 8846 f0bd
00000060: 3f48 bbbd 7d7e c73d fa07 febd 1108 e0bc
00000070: bba3 8c3c ab50 f43c 470f b2bc f262 a9bd
00000080: 89fd 10be f70b 6f3d d0c9 8bbd eadf 6dbc
00000090: 9e76 833b 6959 cd3c f1ee b3bd 14f9 983d
000000a0: 7f53 123e c984 b63b be8d 003d 6e6c 01bd
000000b0: 3138 fbbb e9e3 1d3e 5686 8c3c 2111 abbb
000000c0: c415 aabd 2e2b d03d cddf babd 3579 95bb
000000d0: b4b4 c6bb ff96 be3d 5e59 b7bd c0a1 58bc
000000e0: 7ab8 2c3b 66ea a53d 77f0 02bd 94f6 70bd
000000f0: 8cca a8bd 2cad a7bc f129 80bd 2cea 4cbd
0.051248092 0.049226735 -0.12942296 -0.10207209 -0.02398813 0.024282223 0.100793414 0.062590465
0.023898719 -0.080213144 -0.11120047 -0.030381043 0.09104735 -0.021830967 -0.044551846 -0.0010168643
0.08354001 -0.102407336 -0.025836816 -0.018952284 0.12761301 -0.019524423 -0.07613473 -0.11732203
-0.09144639 0.097409226 -0.12403865 -0.027347596 0.017167917 0.029823622 -0.0217358 -0.082708254
-0.14159216 0.05836102 -0.06825602 -0.014518717 0.004011943 0.025067048 -0.08785809 0.07469383
0.14289664 0.0055700284 0.031385176 -0.031597547 -0.0076666106 0.15418972 0.0171539 -0.005220548
-0.08304933 0.10164486 -0.09124718 -0.004561568 -0.006064022 0.09306144 -0.08952592 -0.013222158
0.0026355074 0.081013486 -0.031967606 -0.058828905 -0.08241758 -0.020468317 -0.06258 -0.05002801

fc3.weight f4 [3, 64]
00000000: d045 b7bd c35f cf3d dab9 58bd 042f fa3d
00000010: 2a12 ce3b 2cae 2d3e 0030 3fbc 5e7e 0abd
00000020: e8f2 973d d1a5 c03d 7ad6 5bbd 2206 573d
00000030: c081 423d 3995 8c3d 273e bd3d 9595 653d
00000040: c218 c33d 091a 16be fd6a cb3d b88e 8a3d
00000050: 0f0c c63d ef3a bd3b ea93 833d 5423 68bd
00000060: e21d 02bc 1bb2 77bd 49c0 15be 428d 0c3d
00000070: ff91 1dbe f2f2 093d dd07 5d3c 3cdb 573d
00000080: 956e 35bd 40c6 78bd 441d 66bd d1f9 34bd
00000090: 5e7b 533d 6460 b53c c28f 19be 01c0 b23d
000000a0: c4e3 31bd 299f 9fbd e462 0f3e e96e d73d
000000b0: 1f16 203d 0b3c f93d 5dc4 dabd 68c6 013e
000000c0: 186a ebbd d14f 853d ecb0 18bc 8968 49bd
000000d0: 085e 1ebd f651 df3d 12e4 ac3d 11e5 563d
000000e0: 26eb 01bd 73b2 fabc b7f2 b73c 0045 40bd
000000f0: 599e 31bd 0ed9 a93d da48 03be 3e24 dd3d
00000100: 3940 13bd b408 b53d 0916 b13d b7a7 69bc
00000110: b9a1 adbc aac8 c2bd 1a73 273b a0a2 5d3d
00000120: 057e c53d fb2a 86bd 9ec4 6a3d d93f 78bd
00000130: d585 e53d 2950 df3d 7008 ddbd 02ac 33bd
00000140: 346f 1bbe 28a8 013d 4769 f6bd 5518 8dbd
00000150: 0cc6 e0bd fe86 0bbd 7d8f 1abd a445 2c3d
00000160: 7710 acbd 878a e9bd e92a 723d f21f 203d
00000170: 56c9 85bc 33c4 61bc 7538 42bd 25e6 c53d
00000180: 963d b73d 4cb1 fbbd ce70 7b3d da83 8b3d
00000190: aa74 ecbd f1d4 0dbd 4cbc e1bd 70fd ad3b
000001a0: 56cc 81bd 712e 89bd 85a0 bcbc ae3a a6bd
000001b0: 377b 673d 90cd 5abd 9d3f 27bc 9da1 6bbd
000001c0: 0fa7 cf3d 6345 6bbd 4ba7 3c3c 6890 66bd
000001d0: e840 a3bd fba7 8c3c ad40 4fbd 5ee1 a9bb
000001e0: 9af1 3cbe 62e2 983d 691f af3d ff71 fcbc
000001f0: 6b6e c03c 02cc bdbd f6d3 ddbc e93f 2dbd
00000200: 054e 383c 4d8f 943c 7409 b13d 17a9 bdbd
00000210: 630e e83c 02c1 2e3d 3e43 203d ee46 e3bc
00000220: 9306 573d 8443 48bb 3e2e dbbd b20b a33d
00000230: a1f3 47bd f991 713d 70d5 913d c7f5 a9bc
00000240: c2b7 1ebd e2c1 13be bb9e 373d 207e 57bc
00000250: c54b 2cbd 6117 873c 3060 803c f6a2 fa3c
00000260: 8fed c33d 6fd7 b4bd 4c74 06be af3e 9bbd
00000270: 96cf a7bc 3098 ba3d 045e 56bd 8b2c bfbc
00000280: 3ef0 35bd bb7b 2dbc 4040 d63d 29fc 893d
00000290: 98d2 3f3d 7265 0cbd c26d 18bd 6a7a d53c
000002a0: 4e55 9fbd 3fdb 55bd a005 be3d f11d 4d3d
000002b0: b417 81bd b879 8a3c 0a6b 05be b4fa 32bd
000002c0: f542 19bd baea ea3c 9691 823c a2dd 07be
000002d0: d6d5 9f3d 5337 a63d 180c c8bd a407 893d
000002e0: 821e c6bb c6f0 1dbc 101d fa3c efab 76bd
000002f0: 1c31 0bbe 2647 cd3d f469 09bd 74ae ae3d
-0.089488626 0.10125687 -0.052911617 0.12215999 0.0062887864 0.16960973 -0.011669159 -0.03381192
0.074193776 0.09406627 -0.053671338 0.052496083 0.04748702 0.068643995 0.0924037 0.056050856
0.095262066 -0.14658369 0.09932516 0.06765503 0.09670269 0.0057748477 0.06424697 -0.056674317
-0.007941695 -0.06047259 -0.14624132 0.0343144 -0.15387724 0.033678956 0.013490644 0.052699313
-0.044294912 -0.06073594 -0.056180254 -0.044183556 0.051631324 0.02214069 -0.14996246 0.08728028
-0.043430105 -0.07794029 0.14002568 0.10519201 0.039083596 0.121696554 -0.106819846 0.12673342
-0.11494845 0.065093644 -0.009319525 -0.049171958 -0.038663894 0.10904305 0.084419385 0.05246455
-0.031718396 -0.03060267 0.022454603 -0.046940804 -0.043363903 0.08293353 -0.1282076 0.10797928
-0.03594992 0.088395506 0.08646781 -0.014261178 -0.02119528 -0.0951093 0.0025550784 0.05411017
0.09643177 -0.065511666 0.057316415 -0.060607765 0.11207167 0.10903961 -0.10792625 -0.04386521
-0.1517914 0.031654507 -0.12031799 -0.068894066 -0.109752744 -0.034064285 -0.037734497 0.042058602
-0.08401578 -0.11403375 0.059122954 0.039092965 -0.016331356 -0.013779688 -0.047417123 0.09663037
0.089472935 -0.12289676 0.061386876 0.06812258 -0.115456894 -0.034626905 -0.11022243 0.005309753
-0.06337802 -0.06698311 -0.02302576 -0.08116661 0.05651399 -0.053418696 -0.010208038 -0.057527173
0.10139286 -0.05743922 0.011514495 -0.05629006 -0.07971364 0.017169943 -0.05059879 -0.0051843366
-0.18451539 0.07465054 0.08550913 -0.030816076 0.023490151 -0.09267427 -0.02707861 -0.042297278
0.01124907 0.018134737 0.08644381 -0.09260767 0.028327173 0.042664535 0.039126627 -0.027743783
0.052496504 -0.003055782 -0.10702179 0.07961215 -0.048816327 0.0589771 0.07120788 -0.020747079
-0.038749464 -0.14429429 0.04482911 -0.013152629 -0.042064447 0.01649064 0.015670866 0.030595284
0.09566795 -0.08830153 -0.13130301 -0.07580315 -0.020484727 0.09111059 -0.052335754 -0.02333667
-0.044418566 -0.010588582 0.104614735 0.06737549 0.046831697 -0.034276433 -0.03721405 0.026059348
-0.077799425 -0.052211042 0.09278417 0.050077382 -0.06303349 0.016903743 -0.13029113 -0.04369612
-0.03741737 0.02867638 0.015938561 -0.1326814 0.07804458 0.08116021 -0.09767932 0.066909105
-0.0060461173 -0.009639924 0.030531436 -0.060222562 -0.13592952 0.10023336 -0.03354831 0.08529368

fc3.bias f4 [3]
00000000: d39b a33d a099 0bbd c9f9 b0bc
0.079887055 -0.034082055 -0.021603482

fc1.weight f4 [64, 12]
00000000: 14d3 5abe 6e22 68be bac6 72be fe51 d7bd
00000010: d814 e7bd c4bb 84be 10eb 143d 92d5 39be
00000020: 86e6 093e b929 7fbe 783b d13d 56e8 9ebd
00000030: 8fb7 613e 6ba4 203c 76fb 523e 5c29 bb3c
00000040: d3fc 87be e174 5ebe 558d e03d 63f3 41be
00000050: cbcc 213e be5d 963c 7eab 71bd 9a69 153e
00000060: fa1a 1c3e d10d 7d3e eb84 9e3e 1dfa 783e
00000070: b2b5 3c3d 1fa1 0e3e 2394 34be 8d42 11be
00000080: caa8 32be b223 a13e 7e00 b13c c3b1 893d
00000090: 6ced 77be 58a2 ec3d bf78 56be dc5e aa3d
000000a0: fc7c a13d 9018 21be 709a 93bc 2075 55bd
000000b0: 9054 e7bc 48aa 683d bc02 61bd 0164 79be
000000c0: b015 0ebe 7512 2e3e f0cd a8bd 9aba 8d3e
000000d0: 88e5 7e3e 87be 09be a9a6 523e 0951 b2bb
000000e0: 65ed 663e 0f22 aebd 7c82 97be 01db 2cbe
000000f0: cef5 e6bd ba25 34be 308f 843c 0627 273e
00000100: 9e78 bdbd c057 6c3e 882e 7ebe 44bd 9dbd
00000110: 1685 423e b282 8b3e 90da cb3c 8403 2d3e
00000120: f2fd 8dbe ce5d 87bd 3489 bcbd 808a 5e3e
00000130: 00f8 8fbc 9028 fd3d 18b5 89be a4ef 473e
00000140: 9cbb 71bd 0060 8f3d 9c78 47bd 5033 233d
00000150: c2fe 743e 7b72 d43c 6e33 113c d32a a13e
00000160: c461 a03e 15b9 633c 2965 6a3e 90e3 7d3e
00000170: 102b 8ebe 7026 acbd 347a 4b3e f996 f9bd
00000180: f4c8 783e 5adb 3e3e 0595 c63d ed40 83bc
00000190: 784c 22bb 0272 e23d d1eb 593e c9c5 c03d
000001a0: 7de3 c7bd 831e 90be 34a5 a8bd cdd4 70be
000001b0: 8b96 653e 2eb0 e3bc 2256 67be 934b 3ebe
000001c0: 7fe9 033e 178b 3f3d 36de 9f3d 5d21 fdbd
000001d0: 6120 3ebe 845d 723e b204 833d 2f53 813e
000001e0: f140 7939 7f11 88bd 307c fbbd 2396 09bd
000001f0: 592c 4b3e 15d2 10bd 0827 403e ad8f 2c3d
00000200: 024c 763e c894 2a3e 727f 09be bffb f5bd
00000210: cc40 b8bd cd90 703e 61d8 943e f46e 633e
00000220: fedd dfbd c813 94be 4135 863e e52b 683e
00000230: cfed d9bd f43b 17be 0f31 59be 441d 543d
00000240: e672 77be 9069 8a3e b4dc 8a3e 2b9f 00be
00000250: 864b 483e 9039 1e3d 5a7c 9abd eabc 73be
00000260: 5846 0d3d c288 09be 4b66 73be 549b 863d
00000270: dc31 88bd 8feb 00be a09e e83c 4ba0 6cbe
00000280: dc40 90be 527a 35be 28ed 4cbe e4ea abbd
00000290: 6045 b73d 952c 23be 9fd1 61be 6080 2d3c
000002a0: 4c06 353e 1c1e 7e3e 5057 533e 0912 6c3e
000002b0: 2627 4f3e f8b4 133e 1ad4 1f3e e278 9c3e
000002c0: a54b 893e 44c7 29bd a8ef 31be efd5 0fbe
000002d0: 6add cdbd d0b1 88be d9b3 87be 8774 92be
000002e0: 9132 69be 503e 14bd 0448 823d 3438 32be
000002f0: f629 2d3e e4c4 103e 270f 87be e228 32be
00000300: 24e3 a2bd 1a48 b4bd 78ef 62bd c070 b03c
00000310: 188a 8ebe c841 c9bd 459d 91be f012 1e3d
00000320: a899 61be 00a0 753e 28f8 4b3d e014 06bc
00000330: b4c4 5fbe c85e 38be c0ac 6fbd 80ca 783e
00000340: d7c2 75be 60f5 36bc b601 463e 56f0 f8bd
00000350: a0e6 6a3d 3068 a63d a0ac 41bc 44e5 29be
00000360: c5aa 393e 3df3 b1bd 40f0 7abe df21 b2bd
00000370: b2bd 283e 7041 1ebe 3ddb bc3d e5dd 033e
00000380: 4394 033d e7a3 083d 86cc 093e e822 d73d
00000390: 00ab 52bc 6e4a 79be 5a82 93bd 9411 1c3e
000003a0: d4a1 843d fefd 873e 147d 6fbe cc8c 213e
000003b0: 7093 e8bc c664 3e3e 08a2 1e3e b953 09be
000003c0: 0918 2d3e 629f 883e 8726 4bbb 413d 4ebb
000003d0: aeb1 0e3d a15f 883d 1ff7 efbd 021a c93c
000003e0: 09ca b9bc a364 5a3e 74ab 5cbe 1489 2abe
000003f0: 6900 2b3e 411c 0a3e bbc2 5a3e 0bd3 fdbd
-0.21369582 -0.22669384 -0.2370862 -0.10513686 -0.112832725 -0.25924504 0.036356986 -0.18147877
0.13466844 -0.2491826 0.10216421 -0.07759158 0.22042678 0.009804825 0.20603737 0.02284687
-0.26560077 -0.21724273 0.10964457 -0.18940501 0.15800779 0.018355247 -0.05900144 0.14591065
0.15244666 0.24712302 0.30960783 0.2431416 0.046071716 0.1392865 -0.17634635 -0.14185543
-0.174472 0.31472546 0.02160668 0.067233585 -0.24211663 0.11554402 -0.20944498 0.08318874
0.07885167 -0.15732026 -0.018017977 -0.052113652 -0.028238565 0.056803018 -0.05493425 -0.24354555
-0.1387546 0.16999228 -0.082424045 0.27681428 0.24892247 -0.13451587 0.20571388 -0.005441789
0.22551496 -0.0850259 -0.2959174 -0.16880418 -0.11277352 -0.17592517 0.016181558 0.1632348
-0.092515215 0.23080349 -0.24822438 -0.07702115 0.18996081 0.2724815 0.024884492 0.16895872
-0.27732807 -0.06609689 -0.09205857 0.21732521 -0.01757431 0.12361252 -0.26895976 0.1952501
-0.05901681 0.070007324 -0.048699006 0.039843857 0.23925307 0.025933495 0.008862359 0.31477985
0.3132459 0.013899107 0.22890152 0.2479384 -0.2776723 -0.08405769 0.19870836 -0.12186999
0.24295408 0.18638363 0.09696392 -0.01602217 -0.0024764817 0.110569015 0.21281363 0.094127245
-0.09760187 -0.2814828 -0.08234635 -0.23518677 0.22420709 -0.02779397 -0.22591451 -0.18583517
0.1288204 0.046763506 0.07806055 -0.12359879 -0.18567039 0.23668486 0.0639738 0.25258777
0.00023770683 -0.06643962 -0.12279546 -0.033590447 0.19841136 -0.0353566 0.18764889 0.042129207
0.24052432 0.16658318 -0.13427523 -0.120109074 -0.08996734 0.23492737 0.29071334 0.22210294
-0.109310135 -0.28921342 0.26212505 0.22672994 -0.106410615 -0.14768964 -0.2121012 0.051785722
-0.24164924 0.27033663 0.27121508 -0.12560718 0.1956006 0.038629115 -0.075432494 -0.23802534
0.034490913 -0.13431075 -0.2376949 0.06572595 -0.06650135 -0.12589858 0.02839595 -0.23108022
-0.28174484 -0.17722443 -0.20012343 -0.08394411 0.08948779 -0.15934975 -0.2205262 0.010589689
0.17678183 0.24816173 0.20638776 0.23053755 0.20229778 0.14424503 0.15608254 0.30560976
0.26815525 -0.0414498 -0.17376578 -0.14046453 -0.10051997 -0.2669816 -0.265044 -0.28604528
-0.22773196 -0.03619224 0.06361392 -0.17404252 0.16910538 0.14137608 -0.26378748 -0.17398408
-0.0795348 -0.08802815 -0.055404156 0.021538138 -0.27839732 -0.09827 -0.284403 0.03859228
-0.22031271 0.23986816 0.049797207 -0.008183688 -0.2185238 -0.18004906 -0.058514357 0.24295998
-0.24000107 -0.0111669 0.1933659 -0.121552154 0.057348847 0.08125341 -0.011820942 -0.16591364
0.1813155 -0.08688972 -0.2450571 -0.08697867 0.16478613 -0.1545465 0.09221504 0.12877615
0.032123815 0.033359434 0.13456926 0.10504705 -0.012858152 -0.24344799 -0.07202597 0.1524108
0.06476179 0.26560968 -0.23387557 0.15776366 -0.028390616 0.1859313 0.15491498 -0.13410844
0.169037 0.266841 -0.0030998306 -0.0031469616 0.034837417 0.06658865 -0.117170565 0.024548534
-0.022679346 0.21327452 -0.21549779 -0.16653854 0.16699375 0.1348734 0.21363346 -0.12393769

fc1.bias f4 [64]
00000000: 3a98 42be 12f6 883d 36fe 923d 8aa6 203e
00000010: 683b 4c3e 1868 84be a4a8 5d3e 8908 9b3e
00000020: 8c3a 50be eb40 36be 89a3 783e d03b 1e3e
00000030: 50d4 5bbe 90dd b53d 8b1a 443e 0056 7bba
00000040: 3418 913e 2826 023d 51f7 913d fc57 883e
00000050: 3e71 28be ead0 913e cf28 043c 42f9 2a3e
00000060: 7f02 debc 16ce 28be 5096 9abd 0bbc 84be
00000070: 11b9 083e 500d d03d 4f2a 25be 8bd4 26bd
00000080: 5adb fa3d 9ded 8a3e 1202 983e b8ad 4cbd
00000090: fc33 683e b432 603e 227a 823e e94d 8d3d
000000a0: d8f2 dcbd 6880 72bd cc5f eb3d ec37 d93d
000000b0: 323d 38be 1715 8a3e 2fcc 953e 9c7b 5f3e
000000c0: 0cd2 a33e d2f4 8fbe 4fa7 67be 6b3d 0a3e
000000d0: 0a83 b4bd 5f42 d53c b922 e63d 797f 93be
000000e0: 549d 3cbe 19a9 c63a ee43 913e 3b49 4f3e
000000f0: 4654 1a3e 4a85 64be b44b c33d 5478 373e
-0.19003382 0.06687559 0.07177393 0.1568853 0.19944537 -0.25860667 0.21646363 0.3027995
-0.20334834 -0.17798202 0.24281134 0.15452504 -0.2146771 0.0888015 0.1915075 -0.0009587705
0.28338778 0.03177467 0.0712725 0.26629627 -0.16449448 0.284797 0.00806637 0.16696647
-0.0271008 -0.16484866 -0.07548201 -0.25924715 0.13351847 0.10158789 -0.1612942 -0.04073004
0.12248869 0.2713441 0.2968908 -0.04997036 0.2267608 0.21894342 0.25483805 0.06899626
-0.10788506 -0.05920449 0.11492881 0.106063694 -0.17992094 0.26969215 0.29257342 0.21824497
0.3199619 -0.2811647 -0.22622417 0.13499992 -0.08814056 0.026032625 0.112370916 -0.2880819
-0.18419391 0.0015156596 0.2837214 0.20242779 0.1507121 -0.2231647 0.095359236 0.17916995
